name: "ResNet-2501"
layer {
  name: "data"
  type: "Data"
  top: "data"
  top: "label"
  include {
    phase: TRAIN
  }
  transform_param {
    mirror: true
    crop_size: 224
    mean_value: 104
    mean_value: 117
    mean_value: 123
  }
  data_param {
    source: "data/ilsvrc12_train_lmdb"
    batch_size: 32
    backend: LMDB
  }
}
layer {
  name: "data"
  type: "Data"
  top: "data"
  top: "label"
  include {
    phase: TEST
  }
  transform_param {
    mirror: false
    crop_size: 224
    mean_value: 104
    mean_value: 117
    mean_value: 123
  }
  data_param {
    source: "data/ilsvrc12_val_lmdb"
    batch_size: 1
    backend: LMDB
  }
}
layer {
  name: "conv1"
  type: "Convolution"
  bottom: "data"
  top: "conv1"
  convolution_param {
    num_output: 64
    pad: 3
    kernel_size: 7
    stride: 2
    weight_filler {
      type: "msra"
    }
    bias_term: false
  }
}
layer {
  name: "bn_conv1"
  type: "BatchNorm"
  bottom: "conv1"
  top: "conv1"
  batch_norm_param {
      use_global_stats: false
  }
}
layer {
  name: "scale_conv1"  
  type: "Scale"
  bottom: "conv1"
  top: "conv1_top"
  scale_param {
	bias_term: true
  }
}
 layer {
  name: "conv1_relu"
  type: "ReLU"
  bottom: "conv1_top"
  top: "conv1_top"
}
layer {
  name: "pool1"
  type: "Pooling"
  bottom: "conv1_top"
  top: "pool1"
  pooling_param {
    pool: MAX
    kernel_size: 3
    stride: 2
  }
}
layer {
  name: "res_1_branch1"
  type: "Convolution"
  bottom: "pool1"
  top: "res_1_branch1"
  convolution_param {
    num_output: 256
    pad: 0
    kernel_size: 1
    stride: 1
    weight_filler {
      type: "msra"
    }
    bias_term: false
  }
}
layer {
  name: "bn_1_branch1"
  type: "BatchNorm"
  bottom: "res_1_branch1"
  top: "res_1_branch1"
  batch_norm_param {
      use_global_stats: false
  }
}
layer {
  name: "scale_1_branch1"  
  type: "Scale"
  bottom: "res_1_branch1"
  top: "res_1_branch1_top"
  scale_param {
	bias_term: true
  }
}
 layer {
  name: "res_stage_1_1_1"
  type: "Convolution"
  bottom: "pool1"
  top: "res_stage_1_1_1"
  convolution_param {
    num_output: 64
    pad: 0
    kernel_size: 1
    stride: 1
    weight_filler {
      type: "msra"
    }
    bias_term: false
  }
}
layer {
  name: "bn_stage_1_1_1"
  type: "BatchNorm"
  bottom: "res_stage_1_1_1"
  top: "res_stage_1_1_1"
  batch_norm_param {
      use_global_stats: false
  }
}
layer {
  name: "scale_stage_1_1_1"  
  type: "Scale"
  bottom: "res_stage_1_1_1"
  top: "res_stage_1_1_1_top"
  scale_param {
	bias_term: true
  }
}
 layer {
  name: "res_stage_1_1_1_relu"
  type: "ReLU"
  bottom: "res_stage_1_1_1_top"
  top: "res_stage_1_1_1_top"
}
layer {
  name: "res_stage_1_1_2"
  type: "Convolution"
  bottom: "res_stage_1_1_1_top"
  top: "res_stage_1_1_2"
  convolution_param {
    num_output: 64
    pad: 1
    kernel_size: 3
    stride: 1
    weight_filler {
      type: "msra"
    }
    bias_term: false
  }
}
layer {
  name: "bn_stage_1_1_2"
  type: "BatchNorm"
  bottom: "res_stage_1_1_2"
  top: "res_stage_1_1_2"
  batch_norm_param {
      use_global_stats: false
  }
}
layer {
  name: "scale_stage_1_1_2"  
  type: "Scale"
  bottom: "res_stage_1_1_2"
  top: "res_stage_1_1_2_top"
  scale_param {
	bias_term: true
  }
}
 layer {
  name: "res_stage_1_1_2_relu"
  type: "ReLU"
  bottom: "res_stage_1_1_2_top"
  top: "res_stage_1_1_2_top"
}
layer {
  name: "res_stage_1_1_3"
  type: "Convolution"
  bottom: "res_stage_1_1_2_top"
  top: "res_stage_1_1_3"
  convolution_param {
    num_output: 256
    pad: 0
    kernel_size: 1
    stride: 1
    weight_filler {
      type: "msra"
    }
    bias_term: false
  }
}
layer {
  name: "bn_stage_1_1_3"
  type: "BatchNorm"
  bottom: "res_stage_1_1_3"
  top: "res_stage_1_1_3"
  batch_norm_param {
      use_global_stats: false
  }
}
layer {
  name: "scale_stage_1_1_3"  
  type: "Scale"
  bottom: "res_stage_1_1_3"
  top: "res_stage_1_1_3_top"
  scale_param {
	bias_term: true
  }
}
 layer {
  name: "res_1_1"
  type: "Eltwise"
  bottom: "res_1_branch1_top"
  bottom: "res_stage_1_1_3_top"
  top: "res_1_1"
  eltwise_param {
    operation: SUM
  }
}
layer {
  name: "res_1_1_relu"
  type: "ReLU"
  bottom: "res_1_1"
  top: "res_1_1"
}
layer {
  name: "res_stage_1_2_1"
  type: "Convolution"
  bottom: "res_1_1"
  top: "res_stage_1_2_1"
  convolution_param {
    num_output: 64
    pad: 0
    kernel_size: 1
    stride: 1
    weight_filler {
      type: "msra"
    }
    bias_term: false
  }
}
layer {
  name: "bn_stage_1_2_1"
  type: "BatchNorm"
  bottom: "res_stage_1_2_1"
  top: "res_stage_1_2_1"
  batch_norm_param {
      use_global_stats: false
  }
}
layer {
  name: "scale_stage_1_2_1"  
  type: "Scale"
  bottom: "res_stage_1_2_1"
  top: "res_stage_1_2_1_top"
  scale_param {
	bias_term: true
  }
}
 layer {
  name: "res_stage_1_2_1_relu"
  type: "ReLU"
  bottom: "res_stage_1_2_1_top"
  top: "res_stage_1_2_1_top"
}
layer {
  name: "res_stage_1_2_2"
  type: "Convolution"
  bottom: "res_stage_1_2_1_top"
  top: "res_stage_1_2_2"
  convolution_param {
    num_output: 64
    pad: 1
    kernel_size: 3
    stride: 1
    weight_filler {
      type: "msra"
    }
    bias_term: false
  }
}
layer {
  name: "bn_stage_1_2_2"
  type: "BatchNorm"
  bottom: "res_stage_1_2_2"
  top: "res_stage_1_2_2"
  batch_norm_param {
      use_global_stats: false
  }
}
layer {
  name: "scale_stage_1_2_2"  
  type: "Scale"
  bottom: "res_stage_1_2_2"
  top: "res_stage_1_2_2_top"
  scale_param {
	bias_term: true
  }
}
 layer {
  name: "res_stage_1_2_2_relu"
  type: "ReLU"
  bottom: "res_stage_1_2_2_top"
  top: "res_stage_1_2_2_top"
}
layer {
  name: "res_stage_1_2_3"
  type: "Convolution"
  bottom: "res_stage_1_2_2_top"
  top: "res_stage_1_2_3"
  convolution_param {
    num_output: 256
    pad: 0
    kernel_size: 1
    stride: 1
    weight_filler {
      type: "msra"
    }
    bias_term: false
  }
}
layer {
  name: "bn_stage_1_2_3"
  type: "BatchNorm"
  bottom: "res_stage_1_2_3"
  top: "res_stage_1_2_3"
  batch_norm_param {
      use_global_stats: false
  }
}
layer {
  name: "scale_stage_1_2_3"  
  type: "Scale"
  bottom: "res_stage_1_2_3"
  top: "res_stage_1_2_3_top"
  scale_param {
	bias_term: true
  }
}
 layer {
  name: "res_1_2"
  type: "Eltwise"
  bottom: "res_1_1"
  bottom: "res_stage_1_2_3_top"
  top: "res_1_2"
  eltwise_param {
    operation: SUM
  }
}
layer {
  name: "res_1_2_relu"
  type: "ReLU"
  bottom: "res_1_2"
  top: "res_1_2"
}
layer {
  name: "res_stage_1_3_1"
  type: "Convolution"
  bottom: "res_1_2"
  top: "res_stage_1_3_1"
  convolution_param {
    num_output: 64
    pad: 0
    kernel_size: 1
    stride: 1
    weight_filler {
      type: "msra"
    }
    bias_term: false
  }
}
layer {
  name: "bn_stage_1_3_1"
  type: "BatchNorm"
  bottom: "res_stage_1_3_1"
  top: "res_stage_1_3_1"
  batch_norm_param {
      use_global_stats: false
  }
}
layer {
  name: "scale_stage_1_3_1"  
  type: "Scale"
  bottom: "res_stage_1_3_1"
  top: "res_stage_1_3_1_top"
  scale_param {
	bias_term: true
  }
}
 layer {
  name: "res_stage_1_3_1_relu"
  type: "ReLU"
  bottom: "res_stage_1_3_1_top"
  top: "res_stage_1_3_1_top"
}
layer {
  name: "res_stage_1_3_2"
  type: "Convolution"
  bottom: "res_stage_1_3_1_top"
  top: "res_stage_1_3_2"
  convolution_param {
    num_output: 64
    pad: 1
    kernel_size: 3
    stride: 1
    weight_filler {
      type: "msra"
    }
    bias_term: false
  }
}
layer {
  name: "bn_stage_1_3_2"
  type: "BatchNorm"
  bottom: "res_stage_1_3_2"
  top: "res_stage_1_3_2"
  batch_norm_param {
      use_global_stats: false
  }
}
layer {
  name: "scale_stage_1_3_2"  
  type: "Scale"
  bottom: "res_stage_1_3_2"
  top: "res_stage_1_3_2_top"
  scale_param {
	bias_term: true
  }
}
 layer {
  name: "res_stage_1_3_2_relu"
  type: "ReLU"
  bottom: "res_stage_1_3_2_top"
  top: "res_stage_1_3_2_top"
}
layer {
  name: "res_stage_1_3_3"
  type: "Convolution"
  bottom: "res_stage_1_3_2_top"
  top: "res_stage_1_3_3"
  convolution_param {
    num_output: 256
    pad: 0
    kernel_size: 1
    stride: 1
    weight_filler {
      type: "msra"
    }
    bias_term: false
  }
}
layer {
  name: "bn_stage_1_3_3"
  type: "BatchNorm"
  bottom: "res_stage_1_3_3"
  top: "res_stage_1_3_3"
  batch_norm_param {
      use_global_stats: false
  }
}
layer {
  name: "scale_stage_1_3_3"  
  type: "Scale"
  bottom: "res_stage_1_3_3"
  top: "res_stage_1_3_3_top"
  scale_param {
	bias_term: true
  }
}
 layer {
  name: "res_1_3"
  type: "Eltwise"
  bottom: "res_1_2"
  bottom: "res_stage_1_3_3_top"
  top: "res_1_3"
  eltwise_param {
    operation: SUM
  }
}
layer {
  name: "res_1_3_relu"
  type: "ReLU"
  bottom: "res_1_3"
  top: "res_1_3"
}
layer {
  name: "res_stage_1_4_1"
  type: "Convolution"
  bottom: "res_1_3"
  top: "res_stage_1_4_1"
  convolution_param {
    num_output: 64
    pad: 0
    kernel_size: 1
    stride: 1
    weight_filler {
      type: "msra"
    }
    bias_term: false
  }
}
layer {
  name: "bn_stage_1_4_1"
  type: "BatchNorm"
  bottom: "res_stage_1_4_1"
  top: "res_stage_1_4_1"
  batch_norm_param {
      use_global_stats: false
  }
}
layer {
  name: "scale_stage_1_4_1"  
  type: "Scale"
  bottom: "res_stage_1_4_1"
  top: "res_stage_1_4_1_top"
  scale_param {
	bias_term: true
  }
}
 layer {
  name: "res_stage_1_4_1_relu"
  type: "ReLU"
  bottom: "res_stage_1_4_1_top"
  top: "res_stage_1_4_1_top"
}
layer {
  name: "res_stage_1_4_2"
  type: "Convolution"
  bottom: "res_stage_1_4_1_top"
  top: "res_stage_1_4_2"
  convolution_param {
    num_output: 64
    pad: 1
    kernel_size: 3
    stride: 1
    weight_filler {
      type: "msra"
    }
    bias_term: false
  }
}
layer {
  name: "bn_stage_1_4_2"
  type: "BatchNorm"
  bottom: "res_stage_1_4_2"
  top: "res_stage_1_4_2"
  batch_norm_param {
      use_global_stats: false
  }
}
layer {
  name: "scale_stage_1_4_2"  
  type: "Scale"
  bottom: "res_stage_1_4_2"
  top: "res_stage_1_4_2_top"
  scale_param {
	bias_term: true
  }
}
 layer {
  name: "res_stage_1_4_2_relu"
  type: "ReLU"
  bottom: "res_stage_1_4_2_top"
  top: "res_stage_1_4_2_top"
}
layer {
  name: "res_stage_1_4_3"
  type: "Convolution"
  bottom: "res_stage_1_4_2_top"
  top: "res_stage_1_4_3"
  convolution_param {
    num_output: 256
    pad: 0
    kernel_size: 1
    stride: 1
    weight_filler {
      type: "msra"
    }
    bias_term: false
  }
}
layer {
  name: "bn_stage_1_4_3"
  type: "BatchNorm"
  bottom: "res_stage_1_4_3"
  top: "res_stage_1_4_3"
  batch_norm_param {
      use_global_stats: false
  }
}
layer {
  name: "scale_stage_1_4_3"  
  type: "Scale"
  bottom: "res_stage_1_4_3"
  top: "res_stage_1_4_3_top"
  scale_param {
	bias_term: true
  }
}
 layer {
  name: "res_1_4"
  type: "Eltwise"
  bottom: "res_1_3"
  bottom: "res_stage_1_4_3_top"
  top: "res_1_4"
  eltwise_param {
    operation: SUM
  }
}
layer {
  name: "res_1_4_relu"
  type: "ReLU"
  bottom: "res_1_4"
  top: "res_1_4"
}
layer {
  name: "res_stage_1_5_1"
  type: "Convolution"
  bottom: "res_1_4"
  top: "res_stage_1_5_1"
  convolution_param {
    num_output: 64
    pad: 0
    kernel_size: 1
    stride: 1
    weight_filler {
      type: "msra"
    }
    bias_term: false
  }
}
layer {
  name: "bn_stage_1_5_1"
  type: "BatchNorm"
  bottom: "res_stage_1_5_1"
  top: "res_stage_1_5_1"
  batch_norm_param {
      use_global_stats: false
  }
}
layer {
  name: "scale_stage_1_5_1"  
  type: "Scale"
  bottom: "res_stage_1_5_1"
  top: "res_stage_1_5_1_top"
  scale_param {
	bias_term: true
  }
}
 layer {
  name: "res_stage_1_5_1_relu"
  type: "ReLU"
  bottom: "res_stage_1_5_1_top"
  top: "res_stage_1_5_1_top"
}
layer {
  name: "res_stage_1_5_2"
  type: "Convolution"
  bottom: "res_stage_1_5_1_top"
  top: "res_stage_1_5_2"
  convolution_param {
    num_output: 64
    pad: 1
    kernel_size: 3
    stride: 1
    weight_filler {
      type: "msra"
    }
    bias_term: false
  }
}
layer {
  name: "bn_stage_1_5_2"
  type: "BatchNorm"
  bottom: "res_stage_1_5_2"
  top: "res_stage_1_5_2"
  batch_norm_param {
      use_global_stats: false
  }
}
layer {
  name: "scale_stage_1_5_2"  
  type: "Scale"
  bottom: "res_stage_1_5_2"
  top: "res_stage_1_5_2_top"
  scale_param {
	bias_term: true
  }
}
 layer {
  name: "res_stage_1_5_2_relu"
  type: "ReLU"
  bottom: "res_stage_1_5_2_top"
  top: "res_stage_1_5_2_top"
}
layer {
  name: "res_stage_1_5_3"
  type: "Convolution"
  bottom: "res_stage_1_5_2_top"
  top: "res_stage_1_5_3"
  convolution_param {
    num_output: 256
    pad: 0
    kernel_size: 1
    stride: 1
    weight_filler {
      type: "msra"
    }
    bias_term: false
  }
}
layer {
  name: "bn_stage_1_5_3"
  type: "BatchNorm"
  bottom: "res_stage_1_5_3"
  top: "res_stage_1_5_3"
  batch_norm_param {
      use_global_stats: false
  }
}
layer {
  name: "scale_stage_1_5_3"  
  type: "Scale"
  bottom: "res_stage_1_5_3"
  top: "res_stage_1_5_3_top"
  scale_param {
	bias_term: true
  }
}
 layer {
  name: "res_1_5"
  type: "Eltwise"
  bottom: "res_1_4"
  bottom: "res_stage_1_5_3_top"
  top: "res_1_5"
  eltwise_param {
    operation: SUM
  }
}
layer {
  name: "res_1_5_relu"
  type: "ReLU"
  bottom: "res_1_5"
  top: "res_1_5"
}
layer {
  name: "res_stage_1_6_1"
  type: "Convolution"
  bottom: "res_1_5"
  top: "res_stage_1_6_1"
  convolution_param {
    num_output: 64
    pad: 0
    kernel_size: 1
    stride: 1
    weight_filler {
      type: "msra"
    }
    bias_term: false
  }
}
layer {
  name: "bn_stage_1_6_1"
  type: "BatchNorm"
  bottom: "res_stage_1_6_1"
  top: "res_stage_1_6_1"
  batch_norm_param {
      use_global_stats: false
  }
}
layer {
  name: "scale_stage_1_6_1"  
  type: "Scale"
  bottom: "res_stage_1_6_1"
  top: "res_stage_1_6_1_top"
  scale_param {
	bias_term: true
  }
}
 layer {
  name: "res_stage_1_6_1_relu"
  type: "ReLU"
  bottom: "res_stage_1_6_1_top"
  top: "res_stage_1_6_1_top"
}
layer {
  name: "res_stage_1_6_2"
  type: "Convolution"
  bottom: "res_stage_1_6_1_top"
  top: "res_stage_1_6_2"
  convolution_param {
    num_output: 64
    pad: 1
    kernel_size: 3
    stride: 1
    weight_filler {
      type: "msra"
    }
    bias_term: false
  }
}
layer {
  name: "bn_stage_1_6_2"
  type: "BatchNorm"
  bottom: "res_stage_1_6_2"
  top: "res_stage_1_6_2"
  batch_norm_param {
      use_global_stats: false
  }
}
layer {
  name: "scale_stage_1_6_2"  
  type: "Scale"
  bottom: "res_stage_1_6_2"
  top: "res_stage_1_6_2_top"
  scale_param {
	bias_term: true
  }
}
 layer {
  name: "res_stage_1_6_2_relu"
  type: "ReLU"
  bottom: "res_stage_1_6_2_top"
  top: "res_stage_1_6_2_top"
}
layer {
  name: "res_stage_1_6_3"
  type: "Convolution"
  bottom: "res_stage_1_6_2_top"
  top: "res_stage_1_6_3"
  convolution_param {
    num_output: 256
    pad: 0
    kernel_size: 1
    stride: 1
    weight_filler {
      type: "msra"
    }
    bias_term: false
  }
}
layer {
  name: "bn_stage_1_6_3"
  type: "BatchNorm"
  bottom: "res_stage_1_6_3"
  top: "res_stage_1_6_3"
  batch_norm_param {
      use_global_stats: false
  }
}
layer {
  name: "scale_stage_1_6_3"  
  type: "Scale"
  bottom: "res_stage_1_6_3"
  top: "res_stage_1_6_3_top"
  scale_param {
	bias_term: true
  }
}
 layer {
  name: "res_1_6"
  type: "Eltwise"
  bottom: "res_1_5"
  bottom: "res_stage_1_6_3_top"
  top: "res_1_6"
  eltwise_param {
    operation: SUM
  }
}
layer {
  name: "res_1_6_relu"
  type: "ReLU"
  bottom: "res_1_6"
  top: "res_1_6"
}
layer {
  name: "res_2_branch1"
  type: "Convolution"
  bottom: "res_1_6"
  top: "res_2_branch1"
  convolution_param {
    num_output: 512
    pad: 0
    kernel_size: 1
    stride: 2
    weight_filler {
      type: "msra"
    }
    bias_term: false
  }
}
layer {
  name: "bn_2_branch1"
  type: "BatchNorm"
  bottom: "res_2_branch1"
  top: "res_2_branch1"
  batch_norm_param {
      use_global_stats: false
  }
}
layer {
  name: "scale_2_branch1"  
  type: "Scale"
  bottom: "res_2_branch1"
  top: "res_2_branch1_top"
  scale_param {
	bias_term: true
  }
}
 layer {
  name: "res_stage_2_1_1"
  type: "Convolution"
  bottom: "res_1_6"
  top: "res_stage_2_1_1"
  convolution_param {
    num_output: 128
    pad: 0
    kernel_size: 1
    stride: 2
    weight_filler {
      type: "msra"
    }
    bias_term: false
  }
}
layer {
  name: "bn_stage_2_1_1"
  type: "BatchNorm"
  bottom: "res_stage_2_1_1"
  top: "res_stage_2_1_1"
  batch_norm_param {
      use_global_stats: false
  }
}
layer {
  name: "scale_stage_2_1_1"  
  type: "Scale"
  bottom: "res_stage_2_1_1"
  top: "res_stage_2_1_1_top"
  scale_param {
	bias_term: true
  }
}
 layer {
  name: "res_stage_2_1_1_relu"
  type: "ReLU"
  bottom: "res_stage_2_1_1_top"
  top: "res_stage_2_1_1_top"
}
layer {
  name: "res_stage_2_1_2"
  type: "Convolution"
  bottom: "res_stage_2_1_1_top"
  top: "res_stage_2_1_2"
  convolution_param {
    num_output: 128
    pad: 1
    kernel_size: 3
    stride: 1
    weight_filler {
      type: "msra"
    }
    bias_term: false
  }
}
layer {
  name: "bn_stage_2_1_2"
  type: "BatchNorm"
  bottom: "res_stage_2_1_2"
  top: "res_stage_2_1_2"
  batch_norm_param {
      use_global_stats: false
  }
}
layer {
  name: "scale_stage_2_1_2"  
  type: "Scale"
  bottom: "res_stage_2_1_2"
  top: "res_stage_2_1_2_top"
  scale_param {
	bias_term: true
  }
}
 layer {
  name: "res_stage_2_1_2_relu"
  type: "ReLU"
  bottom: "res_stage_2_1_2_top"
  top: "res_stage_2_1_2_top"
}
layer {
  name: "res_stage_2_1_3"
  type: "Convolution"
  bottom: "res_stage_2_1_2_top"
  top: "res_stage_2_1_3"
  convolution_param {
    num_output: 512
    pad: 0
    kernel_size: 1
    stride: 1
    weight_filler {
      type: "msra"
    }
    bias_term: false
  }
}
layer {
  name: "bn_stage_2_1_3"
  type: "BatchNorm"
  bottom: "res_stage_2_1_3"
  top: "res_stage_2_1_3"
  batch_norm_param {
      use_global_stats: false
  }
}
layer {
  name: "scale_stage_2_1_3"  
  type: "Scale"
  bottom: "res_stage_2_1_3"
  top: "res_stage_2_1_3_top"
  scale_param {
	bias_term: true
  }
}
 layer {
  name: "res_2_1"
  type: "Eltwise"
  bottom: "res_2_branch1_top"
  bottom: "res_stage_2_1_3_top"
  top: "res_2_1"
  eltwise_param {
    operation: SUM
  }
}
layer {
  name: "res_2_1_relu"
  type: "ReLU"
  bottom: "res_2_1"
  top: "res_2_1"
}
layer {
  name: "res_stage_2_2_1"
  type: "Convolution"
  bottom: "res_2_1"
  top: "res_stage_2_2_1"
  convolution_param {
    num_output: 128
    pad: 0
    kernel_size: 1
    stride: 1
    weight_filler {
      type: "msra"
    }
    bias_term: false
  }
}
layer {
  name: "bn_stage_2_2_1"
  type: "BatchNorm"
  bottom: "res_stage_2_2_1"
  top: "res_stage_2_2_1"
  batch_norm_param {
      use_global_stats: false
  }
}
layer {
  name: "scale_stage_2_2_1"  
  type: "Scale"
  bottom: "res_stage_2_2_1"
  top: "res_stage_2_2_1_top"
  scale_param {
	bias_term: true
  }
}
 layer {
  name: "res_stage_2_2_1_relu"
  type: "ReLU"
  bottom: "res_stage_2_2_1_top"
  top: "res_stage_2_2_1_top"
}
layer {
  name: "res_stage_2_2_2"
  type: "Convolution"
  bottom: "res_stage_2_2_1_top"
  top: "res_stage_2_2_2"
  convolution_param {
    num_output: 128
    pad: 1
    kernel_size: 3
    stride: 1
    weight_filler {
      type: "msra"
    }
    bias_term: false
  }
}
layer {
  name: "bn_stage_2_2_2"
  type: "BatchNorm"
  bottom: "res_stage_2_2_2"
  top: "res_stage_2_2_2"
  batch_norm_param {
      use_global_stats: false
  }
}
layer {
  name: "scale_stage_2_2_2"  
  type: "Scale"
  bottom: "res_stage_2_2_2"
  top: "res_stage_2_2_2_top"
  scale_param {
	bias_term: true
  }
}
 layer {
  name: "res_stage_2_2_2_relu"
  type: "ReLU"
  bottom: "res_stage_2_2_2_top"
  top: "res_stage_2_2_2_top"
}
layer {
  name: "res_stage_2_2_3"
  type: "Convolution"
  bottom: "res_stage_2_2_2_top"
  top: "res_stage_2_2_3"
  convolution_param {
    num_output: 512
    pad: 0
    kernel_size: 1
    stride: 1
    weight_filler {
      type: "msra"
    }
    bias_term: false
  }
}
layer {
  name: "bn_stage_2_2_3"
  type: "BatchNorm"
  bottom: "res_stage_2_2_3"
  top: "res_stage_2_2_3"
  batch_norm_param {
      use_global_stats: false
  }
}
layer {
  name: "scale_stage_2_2_3"  
  type: "Scale"
  bottom: "res_stage_2_2_3"
  top: "res_stage_2_2_3_top"
  scale_param {
	bias_term: true
  }
}
 layer {
  name: "res_2_2"
  type: "Eltwise"
  bottom: "res_2_1"
  bottom: "res_stage_2_2_3_top"
  top: "res_2_2"
  eltwise_param {
    operation: SUM
  }
}
layer {
  name: "res_2_2_relu"
  type: "ReLU"
  bottom: "res_2_2"
  top: "res_2_2"
}
layer {
  name: "res_stage_2_3_1"
  type: "Convolution"
  bottom: "res_2_2"
  top: "res_stage_2_3_1"
  convolution_param {
    num_output: 128
    pad: 0
    kernel_size: 1
    stride: 1
    weight_filler {
      type: "msra"
    }
    bias_term: false
  }
}
layer {
  name: "bn_stage_2_3_1"
  type: "BatchNorm"
  bottom: "res_stage_2_3_1"
  top: "res_stage_2_3_1"
  batch_norm_param {
      use_global_stats: false
  }
}
layer {
  name: "scale_stage_2_3_1"  
  type: "Scale"
  bottom: "res_stage_2_3_1"
  top: "res_stage_2_3_1_top"
  scale_param {
	bias_term: true
  }
}
 layer {
  name: "res_stage_2_3_1_relu"
  type: "ReLU"
  bottom: "res_stage_2_3_1_top"
  top: "res_stage_2_3_1_top"
}
layer {
  name: "res_stage_2_3_2"
  type: "Convolution"
  bottom: "res_stage_2_3_1_top"
  top: "res_stage_2_3_2"
  convolution_param {
    num_output: 128
    pad: 1
    kernel_size: 3
    stride: 1
    weight_filler {
      type: "msra"
    }
    bias_term: false
  }
}
layer {
  name: "bn_stage_2_3_2"
  type: "BatchNorm"
  bottom: "res_stage_2_3_2"
  top: "res_stage_2_3_2"
  batch_norm_param {
      use_global_stats: false
  }
}
layer {
  name: "scale_stage_2_3_2"  
  type: "Scale"
  bottom: "res_stage_2_3_2"
  top: "res_stage_2_3_2_top"
  scale_param {
	bias_term: true
  }
}
 layer {
  name: "res_stage_2_3_2_relu"
  type: "ReLU"
  bottom: "res_stage_2_3_2_top"
  top: "res_stage_2_3_2_top"
}
layer {
  name: "res_stage_2_3_3"
  type: "Convolution"
  bottom: "res_stage_2_3_2_top"
  top: "res_stage_2_3_3"
  convolution_param {
    num_output: 512
    pad: 0
    kernel_size: 1
    stride: 1
    weight_filler {
      type: "msra"
    }
    bias_term: false
  }
}
layer {
  name: "bn_stage_2_3_3"
  type: "BatchNorm"
  bottom: "res_stage_2_3_3"
  top: "res_stage_2_3_3"
  batch_norm_param {
      use_global_stats: false
  }
}
layer {
  name: "scale_stage_2_3_3"  
  type: "Scale"
  bottom: "res_stage_2_3_3"
  top: "res_stage_2_3_3_top"
  scale_param {
	bias_term: true
  }
}
 layer {
  name: "res_2_3"
  type: "Eltwise"
  bottom: "res_2_2"
  bottom: "res_stage_2_3_3_top"
  top: "res_2_3"
  eltwise_param {
    operation: SUM
  }
}
layer {
  name: "res_2_3_relu"
  type: "ReLU"
  bottom: "res_2_3"
  top: "res_2_3"
}
layer {
  name: "res_stage_2_4_1"
  type: "Convolution"
  bottom: "res_2_3"
  top: "res_stage_2_4_1"
  convolution_param {
    num_output: 128
    pad: 0
    kernel_size: 1
    stride: 1
    weight_filler {
      type: "msra"
    }
    bias_term: false
  }
}
layer {
  name: "bn_stage_2_4_1"
  type: "BatchNorm"
  bottom: "res_stage_2_4_1"
  top: "res_stage_2_4_1"
  batch_norm_param {
      use_global_stats: false
  }
}
layer {
  name: "scale_stage_2_4_1"  
  type: "Scale"
  bottom: "res_stage_2_4_1"
  top: "res_stage_2_4_1_top"
  scale_param {
	bias_term: true
  }
}
 layer {
  name: "res_stage_2_4_1_relu"
  type: "ReLU"
  bottom: "res_stage_2_4_1_top"
  top: "res_stage_2_4_1_top"
}
layer {
  name: "res_stage_2_4_2"
  type: "Convolution"
  bottom: "res_stage_2_4_1_top"
  top: "res_stage_2_4_2"
  convolution_param {
    num_output: 128
    pad: 1
    kernel_size: 3
    stride: 1
    weight_filler {
      type: "msra"
    }
    bias_term: false
  }
}
layer {
  name: "bn_stage_2_4_2"
  type: "BatchNorm"
  bottom: "res_stage_2_4_2"
  top: "res_stage_2_4_2"
  batch_norm_param {
      use_global_stats: false
  }
}
layer {
  name: "scale_stage_2_4_2"  
  type: "Scale"
  bottom: "res_stage_2_4_2"
  top: "res_stage_2_4_2_top"
  scale_param {
	bias_term: true
  }
}
 layer {
  name: "res_stage_2_4_2_relu"
  type: "ReLU"
  bottom: "res_stage_2_4_2_top"
  top: "res_stage_2_4_2_top"
}
layer {
  name: "res_stage_2_4_3"
  type: "Convolution"
  bottom: "res_stage_2_4_2_top"
  top: "res_stage_2_4_3"
  convolution_param {
    num_output: 512
    pad: 0
    kernel_size: 1
    stride: 1
    weight_filler {
      type: "msra"
    }
    bias_term: false
  }
}
layer {
  name: "bn_stage_2_4_3"
  type: "BatchNorm"
  bottom: "res_stage_2_4_3"
  top: "res_stage_2_4_3"
  batch_norm_param {
      use_global_stats: false
  }
}
layer {
  name: "scale_stage_2_4_3"  
  type: "Scale"
  bottom: "res_stage_2_4_3"
  top: "res_stage_2_4_3_top"
  scale_param {
	bias_term: true
  }
}
 layer {
  name: "res_2_4"
  type: "Eltwise"
  bottom: "res_2_3"
  bottom: "res_stage_2_4_3_top"
  top: "res_2_4"
  eltwise_param {
    operation: SUM
  }
}
layer {
  name: "res_2_4_relu"
  type: "ReLU"
  bottom: "res_2_4"
  top: "res_2_4"
}
layer {
  name: "res_stage_2_5_1"
  type: "Convolution"
  bottom: "res_2_4"
  top: "res_stage_2_5_1"
  convolution_param {
    num_output: 128
    pad: 0
    kernel_size: 1
    stride: 1
    weight_filler {
      type: "msra"
    }
    bias_term: false
  }
}
layer {
  name: "bn_stage_2_5_1"
  type: "BatchNorm"
  bottom: "res_stage_2_5_1"
  top: "res_stage_2_5_1"
  batch_norm_param {
      use_global_stats: false
  }
}
layer {
  name: "scale_stage_2_5_1"  
  type: "Scale"
  bottom: "res_stage_2_5_1"
  top: "res_stage_2_5_1_top"
  scale_param {
	bias_term: true
  }
}
 layer {
  name: "res_stage_2_5_1_relu"
  type: "ReLU"
  bottom: "res_stage_2_5_1_top"
  top: "res_stage_2_5_1_top"
}
layer {
  name: "res_stage_2_5_2"
  type: "Convolution"
  bottom: "res_stage_2_5_1_top"
  top: "res_stage_2_5_2"
  convolution_param {
    num_output: 128
    pad: 1
    kernel_size: 3
    stride: 1
    weight_filler {
      type: "msra"
    }
    bias_term: false
  }
}
layer {
  name: "bn_stage_2_5_2"
  type: "BatchNorm"
  bottom: "res_stage_2_5_2"
  top: "res_stage_2_5_2"
  batch_norm_param {
      use_global_stats: false
  }
}
layer {
  name: "scale_stage_2_5_2"  
  type: "Scale"
  bottom: "res_stage_2_5_2"
  top: "res_stage_2_5_2_top"
  scale_param {
	bias_term: true
  }
}
 layer {
  name: "res_stage_2_5_2_relu"
  type: "ReLU"
  bottom: "res_stage_2_5_2_top"
  top: "res_stage_2_5_2_top"
}
layer {
  name: "res_stage_2_5_3"
  type: "Convolution"
  bottom: "res_stage_2_5_2_top"
  top: "res_stage_2_5_3"
  convolution_param {
    num_output: 512
    pad: 0
    kernel_size: 1
    stride: 1
    weight_filler {
      type: "msra"
    }
    bias_term: false
  }
}
layer {
  name: "bn_stage_2_5_3"
  type: "BatchNorm"
  bottom: "res_stage_2_5_3"
  top: "res_stage_2_5_3"
  batch_norm_param {
      use_global_stats: false
  }
}
layer {
  name: "scale_stage_2_5_3"  
  type: "Scale"
  bottom: "res_stage_2_5_3"
  top: "res_stage_2_5_3_top"
  scale_param {
	bias_term: true
  }
}
 layer {
  name: "res_2_5"
  type: "Eltwise"
  bottom: "res_2_4"
  bottom: "res_stage_2_5_3_top"
  top: "res_2_5"
  eltwise_param {
    operation: SUM
  }
}
layer {
  name: "res_2_5_relu"
  type: "ReLU"
  bottom: "res_2_5"
  top: "res_2_5"
}
layer {
  name: "res_stage_2_6_1"
  type: "Convolution"
  bottom: "res_2_5"
  top: "res_stage_2_6_1"
  convolution_param {
    num_output: 128
    pad: 0
    kernel_size: 1
    stride: 1
    weight_filler {
      type: "msra"
    }
    bias_term: false
  }
}
layer {
  name: "bn_stage_2_6_1"
  type: "BatchNorm"
  bottom: "res_stage_2_6_1"
  top: "res_stage_2_6_1"
  batch_norm_param {
      use_global_stats: false
  }
}
layer {
  name: "scale_stage_2_6_1"  
  type: "Scale"
  bottom: "res_stage_2_6_1"
  top: "res_stage_2_6_1_top"
  scale_param {
	bias_term: true
  }
}
 layer {
  name: "res_stage_2_6_1_relu"
  type: "ReLU"
  bottom: "res_stage_2_6_1_top"
  top: "res_stage_2_6_1_top"
}
layer {
  name: "res_stage_2_6_2"
  type: "Convolution"
  bottom: "res_stage_2_6_1_top"
  top: "res_stage_2_6_2"
  convolution_param {
    num_output: 128
    pad: 1
    kernel_size: 3
    stride: 1
    weight_filler {
      type: "msra"
    }
    bias_term: false
  }
}
layer {
  name: "bn_stage_2_6_2"
  type: "BatchNorm"
  bottom: "res_stage_2_6_2"
  top: "res_stage_2_6_2"
  batch_norm_param {
      use_global_stats: false
  }
}
layer {
  name: "scale_stage_2_6_2"  
  type: "Scale"
  bottom: "res_stage_2_6_2"
  top: "res_stage_2_6_2_top"
  scale_param {
	bias_term: true
  }
}
 layer {
  name: "res_stage_2_6_2_relu"
  type: "ReLU"
  bottom: "res_stage_2_6_2_top"
  top: "res_stage_2_6_2_top"
}
layer {
  name: "res_stage_2_6_3"
  type: "Convolution"
  bottom: "res_stage_2_6_2_top"
  top: "res_stage_2_6_3"
  convolution_param {
    num_output: 512
    pad: 0
    kernel_size: 1
    stride: 1
    weight_filler {
      type: "msra"
    }
    bias_term: false
  }
}
layer {
  name: "bn_stage_2_6_3"
  type: "BatchNorm"
  bottom: "res_stage_2_6_3"
  top: "res_stage_2_6_3"
  batch_norm_param {
      use_global_stats: false
  }
}
layer {
  name: "scale_stage_2_6_3"  
  type: "Scale"
  bottom: "res_stage_2_6_3"
  top: "res_stage_2_6_3_top"
  scale_param {
	bias_term: true
  }
}
 layer {
  name: "res_2_6"
  type: "Eltwise"
  bottom: "res_2_5"
  bottom: "res_stage_2_6_3_top"
  top: "res_2_6"
  eltwise_param {
    operation: SUM
  }
}
layer {
  name: "res_2_6_relu"
  type: "ReLU"
  bottom: "res_2_6"
  top: "res_2_6"
}
layer {
  name: "res_stage_2_7_1"
  type: "Convolution"
  bottom: "res_2_6"
  top: "res_stage_2_7_1"
  convolution_param {
    num_output: 128
    pad: 0
    kernel_size: 1
    stride: 1
    weight_filler {
      type: "msra"
    }
    bias_term: false
  }
}
layer {
  name: "bn_stage_2_7_1"
  type: "BatchNorm"
  bottom: "res_stage_2_7_1"
  top: "res_stage_2_7_1"
  batch_norm_param {
      use_global_stats: false
  }
}
layer {
  name: "scale_stage_2_7_1"  
  type: "Scale"
  bottom: "res_stage_2_7_1"
  top: "res_stage_2_7_1_top"
  scale_param {
	bias_term: true
  }
}
 layer {
  name: "res_stage_2_7_1_relu"
  type: "ReLU"
  bottom: "res_stage_2_7_1_top"
  top: "res_stage_2_7_1_top"
}
layer {
  name: "res_stage_2_7_2"
  type: "Convolution"
  bottom: "res_stage_2_7_1_top"
  top: "res_stage_2_7_2"
  convolution_param {
    num_output: 128
    pad: 1
    kernel_size: 3
    stride: 1
    weight_filler {
      type: "msra"
    }
    bias_term: false
  }
}
layer {
  name: "bn_stage_2_7_2"
  type: "BatchNorm"
  bottom: "res_stage_2_7_2"
  top: "res_stage_2_7_2"
  batch_norm_param {
      use_global_stats: false
  }
}
layer {
  name: "scale_stage_2_7_2"  
  type: "Scale"
  bottom: "res_stage_2_7_2"
  top: "res_stage_2_7_2_top"
  scale_param {
	bias_term: true
  }
}
 layer {
  name: "res_stage_2_7_2_relu"
  type: "ReLU"
  bottom: "res_stage_2_7_2_top"
  top: "res_stage_2_7_2_top"
}
layer {
  name: "res_stage_2_7_3"
  type: "Convolution"
  bottom: "res_stage_2_7_2_top"
  top: "res_stage_2_7_3"
  convolution_param {
    num_output: 512
    pad: 0
    kernel_size: 1
    stride: 1
    weight_filler {
      type: "msra"
    }
    bias_term: false
  }
}
layer {
  name: "bn_stage_2_7_3"
  type: "BatchNorm"
  bottom: "res_stage_2_7_3"
  top: "res_stage_2_7_3"
  batch_norm_param {
      use_global_stats: false
  }
}
layer {
  name: "scale_stage_2_7_3"  
  type: "Scale"
  bottom: "res_stage_2_7_3"
  top: "res_stage_2_7_3_top"
  scale_param {
	bias_term: true
  }
}
 layer {
  name: "res_2_7"
  type: "Eltwise"
  bottom: "res_2_6"
  bottom: "res_stage_2_7_3_top"
  top: "res_2_7"
  eltwise_param {
    operation: SUM
  }
}
layer {
  name: "res_2_7_relu"
  type: "ReLU"
  bottom: "res_2_7"
  top: "res_2_7"
}
layer {
  name: "res_stage_2_8_1"
  type: "Convolution"
  bottom: "res_2_7"
  top: "res_stage_2_8_1"
  convolution_param {
    num_output: 128
    pad: 0
    kernel_size: 1
    stride: 1
    weight_filler {
      type: "msra"
    }
    bias_term: false
  }
}
layer {
  name: "bn_stage_2_8_1"
  type: "BatchNorm"
  bottom: "res_stage_2_8_1"
  top: "res_stage_2_8_1"
  batch_norm_param {
      use_global_stats: false
  }
}
layer {
  name: "scale_stage_2_8_1"  
  type: "Scale"
  bottom: "res_stage_2_8_1"
  top: "res_stage_2_8_1_top"
  scale_param {
	bias_term: true
  }
}
 layer {
  name: "res_stage_2_8_1_relu"
  type: "ReLU"
  bottom: "res_stage_2_8_1_top"
  top: "res_stage_2_8_1_top"
}
layer {
  name: "res_stage_2_8_2"
  type: "Convolution"
  bottom: "res_stage_2_8_1_top"
  top: "res_stage_2_8_2"
  convolution_param {
    num_output: 128
    pad: 1
    kernel_size: 3
    stride: 1
    weight_filler {
      type: "msra"
    }
    bias_term: false
  }
}
layer {
  name: "bn_stage_2_8_2"
  type: "BatchNorm"
  bottom: "res_stage_2_8_2"
  top: "res_stage_2_8_2"
  batch_norm_param {
      use_global_stats: false
  }
}
layer {
  name: "scale_stage_2_8_2"  
  type: "Scale"
  bottom: "res_stage_2_8_2"
  top: "res_stage_2_8_2_top"
  scale_param {
	bias_term: true
  }
}
 layer {
  name: "res_stage_2_8_2_relu"
  type: "ReLU"
  bottom: "res_stage_2_8_2_top"
  top: "res_stage_2_8_2_top"
}
layer {
  name: "res_stage_2_8_3"
  type: "Convolution"
  bottom: "res_stage_2_8_2_top"
  top: "res_stage_2_8_3"
  convolution_param {
    num_output: 512
    pad: 0
    kernel_size: 1
    stride: 1
    weight_filler {
      type: "msra"
    }
    bias_term: false
  }
}
layer {
  name: "bn_stage_2_8_3"
  type: "BatchNorm"
  bottom: "res_stage_2_8_3"
  top: "res_stage_2_8_3"
  batch_norm_param {
      use_global_stats: false
  }
}
layer {
  name: "scale_stage_2_8_3"  
  type: "Scale"
  bottom: "res_stage_2_8_3"
  top: "res_stage_2_8_3_top"
  scale_param {
	bias_term: true
  }
}
 layer {
  name: "res_2_8"
  type: "Eltwise"
  bottom: "res_2_7"
  bottom: "res_stage_2_8_3_top"
  top: "res_2_8"
  eltwise_param {
    operation: SUM
  }
}
layer {
  name: "res_2_8_relu"
  type: "ReLU"
  bottom: "res_2_8"
  top: "res_2_8"
}
layer {
  name: "res_stage_2_9_1"
  type: "Convolution"
  bottom: "res_2_8"
  top: "res_stage_2_9_1"
  convolution_param {
    num_output: 128
    pad: 0
    kernel_size: 1
    stride: 1
    weight_filler {
      type: "msra"
    }
    bias_term: false
  }
}
layer {
  name: "bn_stage_2_9_1"
  type: "BatchNorm"
  bottom: "res_stage_2_9_1"
  top: "res_stage_2_9_1"
  batch_norm_param {
      use_global_stats: false
  }
}
layer {
  name: "scale_stage_2_9_1"  
  type: "Scale"
  bottom: "res_stage_2_9_1"
  top: "res_stage_2_9_1_top"
  scale_param {
	bias_term: true
  }
}
 layer {
  name: "res_stage_2_9_1_relu"
  type: "ReLU"
  bottom: "res_stage_2_9_1_top"
  top: "res_stage_2_9_1_top"
}
layer {
  name: "res_stage_2_9_2"
  type: "Convolution"
  bottom: "res_stage_2_9_1_top"
  top: "res_stage_2_9_2"
  convolution_param {
    num_output: 128
    pad: 1
    kernel_size: 3
    stride: 1
    weight_filler {
      type: "msra"
    }
    bias_term: false
  }
}
layer {
  name: "bn_stage_2_9_2"
  type: "BatchNorm"
  bottom: "res_stage_2_9_2"
  top: "res_stage_2_9_2"
  batch_norm_param {
      use_global_stats: false
  }
}
layer {
  name: "scale_stage_2_9_2"  
  type: "Scale"
  bottom: "res_stage_2_9_2"
  top: "res_stage_2_9_2_top"
  scale_param {
	bias_term: true
  }
}
 layer {
  name: "res_stage_2_9_2_relu"
  type: "ReLU"
  bottom: "res_stage_2_9_2_top"
  top: "res_stage_2_9_2_top"
}
layer {
  name: "res_stage_2_9_3"
  type: "Convolution"
  bottom: "res_stage_2_9_2_top"
  top: "res_stage_2_9_3"
  convolution_param {
    num_output: 512
    pad: 0
    kernel_size: 1
    stride: 1
    weight_filler {
      type: "msra"
    }
    bias_term: false
  }
}
layer {
  name: "bn_stage_2_9_3"
  type: "BatchNorm"
  bottom: "res_stage_2_9_3"
  top: "res_stage_2_9_3"
  batch_norm_param {
      use_global_stats: false
  }
}
layer {
  name: "scale_stage_2_9_3"  
  type: "Scale"
  bottom: "res_stage_2_9_3"
  top: "res_stage_2_9_3_top"
  scale_param {
	bias_term: true
  }
}
 layer {
  name: "res_2_9"
  type: "Eltwise"
  bottom: "res_2_8"
  bottom: "res_stage_2_9_3_top"
  top: "res_2_9"
  eltwise_param {
    operation: SUM
  }
}
layer {
  name: "res_2_9_relu"
  type: "ReLU"
  bottom: "res_2_9"
  top: "res_2_9"
}
layer {
  name: "res_stage_2_10_1"
  type: "Convolution"
  bottom: "res_2_9"
  top: "res_stage_2_10_1"
  convolution_param {
    num_output: 128
    pad: 0
    kernel_size: 1
    stride: 1
    weight_filler {
      type: "msra"
    }
    bias_term: false
  }
}
layer {
  name: "bn_stage_2_10_1"
  type: "BatchNorm"
  bottom: "res_stage_2_10_1"
  top: "res_stage_2_10_1"
  batch_norm_param {
      use_global_stats: false
  }
}
layer {
  name: "scale_stage_2_10_1"  
  type: "Scale"
  bottom: "res_stage_2_10_1"
  top: "res_stage_2_10_1_top"
  scale_param {
	bias_term: true
  }
}
 layer {
  name: "res_stage_2_10_1_relu"
  type: "ReLU"
  bottom: "res_stage_2_10_1_top"
  top: "res_stage_2_10_1_top"
}
layer {
  name: "res_stage_2_10_2"
  type: "Convolution"
  bottom: "res_stage_2_10_1_top"
  top: "res_stage_2_10_2"
  convolution_param {
    num_output: 128
    pad: 1
    kernel_size: 3
    stride: 1
    weight_filler {
      type: "msra"
    }
    bias_term: false
  }
}
layer {
  name: "bn_stage_2_10_2"
  type: "BatchNorm"
  bottom: "res_stage_2_10_2"
  top: "res_stage_2_10_2"
  batch_norm_param {
      use_global_stats: false
  }
}
layer {
  name: "scale_stage_2_10_2"  
  type: "Scale"
  bottom: "res_stage_2_10_2"
  top: "res_stage_2_10_2_top"
  scale_param {
	bias_term: true
  }
}
 layer {
  name: "res_stage_2_10_2_relu"
  type: "ReLU"
  bottom: "res_stage_2_10_2_top"
  top: "res_stage_2_10_2_top"
}
layer {
  name: "res_stage_2_10_3"
  type: "Convolution"
  bottom: "res_stage_2_10_2_top"
  top: "res_stage_2_10_3"
  convolution_param {
    num_output: 512
    pad: 0
    kernel_size: 1
    stride: 1
    weight_filler {
      type: "msra"
    }
    bias_term: false
  }
}
layer {
  name: "bn_stage_2_10_3"
  type: "BatchNorm"
  bottom: "res_stage_2_10_3"
  top: "res_stage_2_10_3"
  batch_norm_param {
      use_global_stats: false
  }
}
layer {
  name: "scale_stage_2_10_3"  
  type: "Scale"
  bottom: "res_stage_2_10_3"
  top: "res_stage_2_10_3_top"
  scale_param {
	bias_term: true
  }
}
 layer {
  name: "res_2_10"
  type: "Eltwise"
  bottom: "res_2_9"
  bottom: "res_stage_2_10_3_top"
  top: "res_2_10"
  eltwise_param {
    operation: SUM
  }
}
layer {
  name: "res_2_10_relu"
  type: "ReLU"
  bottom: "res_2_10"
  top: "res_2_10"
}
layer {
  name: "res_stage_2_11_1"
  type: "Convolution"
  bottom: "res_2_10"
  top: "res_stage_2_11_1"
  convolution_param {
    num_output: 128
    pad: 0
    kernel_size: 1
    stride: 1
    weight_filler {
      type: "msra"
    }
    bias_term: false
  }
}
layer {
  name: "bn_stage_2_11_1"
  type: "BatchNorm"
  bottom: "res_stage_2_11_1"
  top: "res_stage_2_11_1"
  batch_norm_param {
      use_global_stats: false
  }
}
layer {
  name: "scale_stage_2_11_1"  
  type: "Scale"
  bottom: "res_stage_2_11_1"
  top: "res_stage_2_11_1_top"
  scale_param {
	bias_term: true
  }
}
 layer {
  name: "res_stage_2_11_1_relu"
  type: "ReLU"
  bottom: "res_stage_2_11_1_top"
  top: "res_stage_2_11_1_top"
}
layer {
  name: "res_stage_2_11_2"
  type: "Convolution"
  bottom: "res_stage_2_11_1_top"
  top: "res_stage_2_11_2"
  convolution_param {
    num_output: 128
    pad: 1
    kernel_size: 3
    stride: 1
    weight_filler {
      type: "msra"
    }
    bias_term: false
  }
}
layer {
  name: "bn_stage_2_11_2"
  type: "BatchNorm"
  bottom: "res_stage_2_11_2"
  top: "res_stage_2_11_2"
  batch_norm_param {
      use_global_stats: false
  }
}
layer {
  name: "scale_stage_2_11_2"  
  type: "Scale"
  bottom: "res_stage_2_11_2"
  top: "res_stage_2_11_2_top"
  scale_param {
	bias_term: true
  }
}
 layer {
  name: "res_stage_2_11_2_relu"
  type: "ReLU"
  bottom: "res_stage_2_11_2_top"
  top: "res_stage_2_11_2_top"
}
layer {
  name: "res_stage_2_11_3"
  type: "Convolution"
  bottom: "res_stage_2_11_2_top"
  top: "res_stage_2_11_3"
  convolution_param {
    num_output: 512
    pad: 0
    kernel_size: 1
    stride: 1
    weight_filler {
      type: "msra"
    }
    bias_term: false
  }
}
layer {
  name: "bn_stage_2_11_3"
  type: "BatchNorm"
  bottom: "res_stage_2_11_3"
  top: "res_stage_2_11_3"
  batch_norm_param {
      use_global_stats: false
  }
}
layer {
  name: "scale_stage_2_11_3"  
  type: "Scale"
  bottom: "res_stage_2_11_3"
  top: "res_stage_2_11_3_top"
  scale_param {
	bias_term: true
  }
}
 layer {
  name: "res_2_11"
  type: "Eltwise"
  bottom: "res_2_10"
  bottom: "res_stage_2_11_3_top"
  top: "res_2_11"
  eltwise_param {
    operation: SUM
  }
}
layer {
  name: "res_2_11_relu"
  type: "ReLU"
  bottom: "res_2_11"
  top: "res_2_11"
}
layer {
  name: "res_stage_2_12_1"
  type: "Convolution"
  bottom: "res_2_11"
  top: "res_stage_2_12_1"
  convolution_param {
    num_output: 128
    pad: 0
    kernel_size: 1
    stride: 1
    weight_filler {
      type: "msra"
    }
    bias_term: false
  }
}
layer {
  name: "bn_stage_2_12_1"
  type: "BatchNorm"
  bottom: "res_stage_2_12_1"
  top: "res_stage_2_12_1"
  batch_norm_param {
      use_global_stats: false
  }
}
layer {
  name: "scale_stage_2_12_1"  
  type: "Scale"
  bottom: "res_stage_2_12_1"
  top: "res_stage_2_12_1_top"
  scale_param {
	bias_term: true
  }
}
 layer {
  name: "res_stage_2_12_1_relu"
  type: "ReLU"
  bottom: "res_stage_2_12_1_top"
  top: "res_stage_2_12_1_top"
}
layer {
  name: "res_stage_2_12_2"
  type: "Convolution"
  bottom: "res_stage_2_12_1_top"
  top: "res_stage_2_12_2"
  convolution_param {
    num_output: 128
    pad: 1
    kernel_size: 3
    stride: 1
    weight_filler {
      type: "msra"
    }
    bias_term: false
  }
}
layer {
  name: "bn_stage_2_12_2"
  type: "BatchNorm"
  bottom: "res_stage_2_12_2"
  top: "res_stage_2_12_2"
  batch_norm_param {
      use_global_stats: false
  }
}
layer {
  name: "scale_stage_2_12_2"  
  type: "Scale"
  bottom: "res_stage_2_12_2"
  top: "res_stage_2_12_2_top"
  scale_param {
	bias_term: true
  }
}
 layer {
  name: "res_stage_2_12_2_relu"
  type: "ReLU"
  bottom: "res_stage_2_12_2_top"
  top: "res_stage_2_12_2_top"
}
layer {
  name: "res_stage_2_12_3"
  type: "Convolution"
  bottom: "res_stage_2_12_2_top"
  top: "res_stage_2_12_3"
  convolution_param {
    num_output: 512
    pad: 0
    kernel_size: 1
    stride: 1
    weight_filler {
      type: "msra"
    }
    bias_term: false
  }
}
layer {
  name: "bn_stage_2_12_3"
  type: "BatchNorm"
  bottom: "res_stage_2_12_3"
  top: "res_stage_2_12_3"
  batch_norm_param {
      use_global_stats: false
  }
}
layer {
  name: "scale_stage_2_12_3"  
  type: "Scale"
  bottom: "res_stage_2_12_3"
  top: "res_stage_2_12_3_top"
  scale_param {
	bias_term: true
  }
}
 layer {
  name: "res_2_12"
  type: "Eltwise"
  bottom: "res_2_11"
  bottom: "res_stage_2_12_3_top"
  top: "res_2_12"
  eltwise_param {
    operation: SUM
  }
}
layer {
  name: "res_2_12_relu"
  type: "ReLU"
  bottom: "res_2_12"
  top: "res_2_12"
}
layer {
  name: "res_stage_2_13_1"
  type: "Convolution"
  bottom: "res_2_12"
  top: "res_stage_2_13_1"
  convolution_param {
    num_output: 128
    pad: 0
    kernel_size: 1
    stride: 1
    weight_filler {
      type: "msra"
    }
    bias_term: false
  }
}
layer {
  name: "bn_stage_2_13_1"
  type: "BatchNorm"
  bottom: "res_stage_2_13_1"
  top: "res_stage_2_13_1"
  batch_norm_param {
      use_global_stats: false
  }
}
layer {
  name: "scale_stage_2_13_1"  
  type: "Scale"
  bottom: "res_stage_2_13_1"
  top: "res_stage_2_13_1_top"
  scale_param {
	bias_term: true
  }
}
 layer {
  name: "res_stage_2_13_1_relu"
  type: "ReLU"
  bottom: "res_stage_2_13_1_top"
  top: "res_stage_2_13_1_top"
}
layer {
  name: "res_stage_2_13_2"
  type: "Convolution"
  bottom: "res_stage_2_13_1_top"
  top: "res_stage_2_13_2"
  convolution_param {
    num_output: 128
    pad: 1
    kernel_size: 3
    stride: 1
    weight_filler {
      type: "msra"
    }
    bias_term: false
  }
}
layer {
  name: "bn_stage_2_13_2"
  type: "BatchNorm"
  bottom: "res_stage_2_13_2"
  top: "res_stage_2_13_2"
  batch_norm_param {
      use_global_stats: false
  }
}
layer {
  name: "scale_stage_2_13_2"  
  type: "Scale"
  bottom: "res_stage_2_13_2"
  top: "res_stage_2_13_2_top"
  scale_param {
	bias_term: true
  }
}
 layer {
  name: "res_stage_2_13_2_relu"
  type: "ReLU"
  bottom: "res_stage_2_13_2_top"
  top: "res_stage_2_13_2_top"
}
layer {
  name: "res_stage_2_13_3"
  type: "Convolution"
  bottom: "res_stage_2_13_2_top"
  top: "res_stage_2_13_3"
  convolution_param {
    num_output: 512
    pad: 0
    kernel_size: 1
    stride: 1
    weight_filler {
      type: "msra"
    }
    bias_term: false
  }
}
layer {
  name: "bn_stage_2_13_3"
  type: "BatchNorm"
  bottom: "res_stage_2_13_3"
  top: "res_stage_2_13_3"
  batch_norm_param {
      use_global_stats: false
  }
}
layer {
  name: "scale_stage_2_13_3"  
  type: "Scale"
  bottom: "res_stage_2_13_3"
  top: "res_stage_2_13_3_top"
  scale_param {
	bias_term: true
  }
}
 layer {
  name: "res_2_13"
  type: "Eltwise"
  bottom: "res_2_12"
  bottom: "res_stage_2_13_3_top"
  top: "res_2_13"
  eltwise_param {
    operation: SUM
  }
}
layer {
  name: "res_2_13_relu"
  type: "ReLU"
  bottom: "res_2_13"
  top: "res_2_13"
}
layer {
  name: "res_stage_2_14_1"
  type: "Convolution"
  bottom: "res_2_13"
  top: "res_stage_2_14_1"
  convolution_param {
    num_output: 128
    pad: 0
    kernel_size: 1
    stride: 1
    weight_filler {
      type: "msra"
    }
    bias_term: false
  }
}
layer {
  name: "bn_stage_2_14_1"
  type: "BatchNorm"
  bottom: "res_stage_2_14_1"
  top: "res_stage_2_14_1"
  batch_norm_param {
      use_global_stats: false
  }
}
layer {
  name: "scale_stage_2_14_1"  
  type: "Scale"
  bottom: "res_stage_2_14_1"
  top: "res_stage_2_14_1_top"
  scale_param {
	bias_term: true
  }
}
 layer {
  name: "res_stage_2_14_1_relu"
  type: "ReLU"
  bottom: "res_stage_2_14_1_top"
  top: "res_stage_2_14_1_top"
}
layer {
  name: "res_stage_2_14_2"
  type: "Convolution"
  bottom: "res_stage_2_14_1_top"
  top: "res_stage_2_14_2"
  convolution_param {
    num_output: 128
    pad: 1
    kernel_size: 3
    stride: 1
    weight_filler {
      type: "msra"
    }
    bias_term: false
  }
}
layer {
  name: "bn_stage_2_14_2"
  type: "BatchNorm"
  bottom: "res_stage_2_14_2"
  top: "res_stage_2_14_2"
  batch_norm_param {
      use_global_stats: false
  }
}
layer {
  name: "scale_stage_2_14_2"  
  type: "Scale"
  bottom: "res_stage_2_14_2"
  top: "res_stage_2_14_2_top"
  scale_param {
	bias_term: true
  }
}
 layer {
  name: "res_stage_2_14_2_relu"
  type: "ReLU"
  bottom: "res_stage_2_14_2_top"
  top: "res_stage_2_14_2_top"
}
layer {
  name: "res_stage_2_14_3"
  type: "Convolution"
  bottom: "res_stage_2_14_2_top"
  top: "res_stage_2_14_3"
  convolution_param {
    num_output: 512
    pad: 0
    kernel_size: 1
    stride: 1
    weight_filler {
      type: "msra"
    }
    bias_term: false
  }
}
layer {
  name: "bn_stage_2_14_3"
  type: "BatchNorm"
  bottom: "res_stage_2_14_3"
  top: "res_stage_2_14_3"
  batch_norm_param {
      use_global_stats: false
  }
}
layer {
  name: "scale_stage_2_14_3"  
  type: "Scale"
  bottom: "res_stage_2_14_3"
  top: "res_stage_2_14_3_top"
  scale_param {
	bias_term: true
  }
}
 layer {
  name: "res_2_14"
  type: "Eltwise"
  bottom: "res_2_13"
  bottom: "res_stage_2_14_3_top"
  top: "res_2_14"
  eltwise_param {
    operation: SUM
  }
}
layer {
  name: "res_2_14_relu"
  type: "ReLU"
  bottom: "res_2_14"
  top: "res_2_14"
}
layer {
  name: "res_stage_2_15_1"
  type: "Convolution"
  bottom: "res_2_14"
  top: "res_stage_2_15_1"
  convolution_param {
    num_output: 128
    pad: 0
    kernel_size: 1
    stride: 1
    weight_filler {
      type: "msra"
    }
    bias_term: false
  }
}
layer {
  name: "bn_stage_2_15_1"
  type: "BatchNorm"
  bottom: "res_stage_2_15_1"
  top: "res_stage_2_15_1"
  batch_norm_param {
      use_global_stats: false
  }
}
layer {
  name: "scale_stage_2_15_1"  
  type: "Scale"
  bottom: "res_stage_2_15_1"
  top: "res_stage_2_15_1_top"
  scale_param {
	bias_term: true
  }
}
 layer {
  name: "res_stage_2_15_1_relu"
  type: "ReLU"
  bottom: "res_stage_2_15_1_top"
  top: "res_stage_2_15_1_top"
}
layer {
  name: "res_stage_2_15_2"
  type: "Convolution"
  bottom: "res_stage_2_15_1_top"
  top: "res_stage_2_15_2"
  convolution_param {
    num_output: 128
    pad: 1
    kernel_size: 3
    stride: 1
    weight_filler {
      type: "msra"
    }
    bias_term: false
  }
}
layer {
  name: "bn_stage_2_15_2"
  type: "BatchNorm"
  bottom: "res_stage_2_15_2"
  top: "res_stage_2_15_2"
  batch_norm_param {
      use_global_stats: false
  }
}
layer {
  name: "scale_stage_2_15_2"  
  type: "Scale"
  bottom: "res_stage_2_15_2"
  top: "res_stage_2_15_2_top"
  scale_param {
	bias_term: true
  }
}
 layer {
  name: "res_stage_2_15_2_relu"
  type: "ReLU"
  bottom: "res_stage_2_15_2_top"
  top: "res_stage_2_15_2_top"
}
layer {
  name: "res_stage_2_15_3"
  type: "Convolution"
  bottom: "res_stage_2_15_2_top"
  top: "res_stage_2_15_3"
  convolution_param {
    num_output: 512
    pad: 0
    kernel_size: 1
    stride: 1
    weight_filler {
      type: "msra"
    }
    bias_term: false
  }
}
layer {
  name: "bn_stage_2_15_3"
  type: "BatchNorm"
  bottom: "res_stage_2_15_3"
  top: "res_stage_2_15_3"
  batch_norm_param {
      use_global_stats: false
  }
}
layer {
  name: "scale_stage_2_15_3"  
  type: "Scale"
  bottom: "res_stage_2_15_3"
  top: "res_stage_2_15_3_top"
  scale_param {
	bias_term: true
  }
}
 layer {
  name: "res_2_15"
  type: "Eltwise"
  bottom: "res_2_14"
  bottom: "res_stage_2_15_3_top"
  top: "res_2_15"
  eltwise_param {
    operation: SUM
  }
}
layer {
  name: "res_2_15_relu"
  type: "ReLU"
  bottom: "res_2_15"
  top: "res_2_15"
}
layer {
  name: "res_stage_2_16_1"
  type: "Convolution"
  bottom: "res_2_15"
  top: "res_stage_2_16_1"
  convolution_param {
    num_output: 128
    pad: 0
    kernel_size: 1
    stride: 1
    weight_filler {
      type: "msra"
    }
    bias_term: false
  }
}
layer {
  name: "bn_stage_2_16_1"
  type: "BatchNorm"
  bottom: "res_stage_2_16_1"
  top: "res_stage_2_16_1"
  batch_norm_param {
      use_global_stats: false
  }
}
layer {
  name: "scale_stage_2_16_1"  
  type: "Scale"
  bottom: "res_stage_2_16_1"
  top: "res_stage_2_16_1_top"
  scale_param {
	bias_term: true
  }
}
 layer {
  name: "res_stage_2_16_1_relu"
  type: "ReLU"
  bottom: "res_stage_2_16_1_top"
  top: "res_stage_2_16_1_top"
}
layer {
  name: "res_stage_2_16_2"
  type: "Convolution"
  bottom: "res_stage_2_16_1_top"
  top: "res_stage_2_16_2"
  convolution_param {
    num_output: 128
    pad: 1
    kernel_size: 3
    stride: 1
    weight_filler {
      type: "msra"
    }
    bias_term: false
  }
}
layer {
  name: "bn_stage_2_16_2"
  type: "BatchNorm"
  bottom: "res_stage_2_16_2"
  top: "res_stage_2_16_2"
  batch_norm_param {
      use_global_stats: false
  }
}
layer {
  name: "scale_stage_2_16_2"  
  type: "Scale"
  bottom: "res_stage_2_16_2"
  top: "res_stage_2_16_2_top"
  scale_param {
	bias_term: true
  }
}
 layer {
  name: "res_stage_2_16_2_relu"
  type: "ReLU"
  bottom: "res_stage_2_16_2_top"
  top: "res_stage_2_16_2_top"
}
layer {
  name: "res_stage_2_16_3"
  type: "Convolution"
  bottom: "res_stage_2_16_2_top"
  top: "res_stage_2_16_3"
  convolution_param {
    num_output: 512
    pad: 0
    kernel_size: 1
    stride: 1
    weight_filler {
      type: "msra"
    }
    bias_term: false
  }
}
layer {
  name: "bn_stage_2_16_3"
  type: "BatchNorm"
  bottom: "res_stage_2_16_3"
  top: "res_stage_2_16_3"
  batch_norm_param {
      use_global_stats: false
  }
}
layer {
  name: "scale_stage_2_16_3"  
  type: "Scale"
  bottom: "res_stage_2_16_3"
  top: "res_stage_2_16_3_top"
  scale_param {
	bias_term: true
  }
}
 layer {
  name: "res_2_16"
  type: "Eltwise"
  bottom: "res_2_15"
  bottom: "res_stage_2_16_3_top"
  top: "res_2_16"
  eltwise_param {
    operation: SUM
  }
}
layer {
  name: "res_2_16_relu"
  type: "ReLU"
  bottom: "res_2_16"
  top: "res_2_16"
}
layer {
  name: "res_stage_2_17_1"
  type: "Convolution"
  bottom: "res_2_16"
  top: "res_stage_2_17_1"
  convolution_param {
    num_output: 128
    pad: 0
    kernel_size: 1
    stride: 1
    weight_filler {
      type: "msra"
    }
    bias_term: false
  }
}
layer {
  name: "bn_stage_2_17_1"
  type: "BatchNorm"
  bottom: "res_stage_2_17_1"
  top: "res_stage_2_17_1"
  batch_norm_param {
      use_global_stats: false
  }
}
layer {
  name: "scale_stage_2_17_1"  
  type: "Scale"
  bottom: "res_stage_2_17_1"
  top: "res_stage_2_17_1_top"
  scale_param {
	bias_term: true
  }
}
 layer {
  name: "res_stage_2_17_1_relu"
  type: "ReLU"
  bottom: "res_stage_2_17_1_top"
  top: "res_stage_2_17_1_top"
}
layer {
  name: "res_stage_2_17_2"
  type: "Convolution"
  bottom: "res_stage_2_17_1_top"
  top: "res_stage_2_17_2"
  convolution_param {
    num_output: 128
    pad: 1
    kernel_size: 3
    stride: 1
    weight_filler {
      type: "msra"
    }
    bias_term: false
  }
}
layer {
  name: "bn_stage_2_17_2"
  type: "BatchNorm"
  bottom: "res_stage_2_17_2"
  top: "res_stage_2_17_2"
  batch_norm_param {
      use_global_stats: false
  }
}
layer {
  name: "scale_stage_2_17_2"  
  type: "Scale"
  bottom: "res_stage_2_17_2"
  top: "res_stage_2_17_2_top"
  scale_param {
	bias_term: true
  }
}
 layer {
  name: "res_stage_2_17_2_relu"
  type: "ReLU"
  bottom: "res_stage_2_17_2_top"
  top: "res_stage_2_17_2_top"
}
layer {
  name: "res_stage_2_17_3"
  type: "Convolution"
  bottom: "res_stage_2_17_2_top"
  top: "res_stage_2_17_3"
  convolution_param {
    num_output: 512
    pad: 0
    kernel_size: 1
    stride: 1
    weight_filler {
      type: "msra"
    }
    bias_term: false
  }
}
layer {
  name: "bn_stage_2_17_3"
  type: "BatchNorm"
  bottom: "res_stage_2_17_3"
  top: "res_stage_2_17_3"
  batch_norm_param {
      use_global_stats: false
  }
}
layer {
  name: "scale_stage_2_17_3"  
  type: "Scale"
  bottom: "res_stage_2_17_3"
  top: "res_stage_2_17_3_top"
  scale_param {
	bias_term: true
  }
}
 layer {
  name: "res_2_17"
  type: "Eltwise"
  bottom: "res_2_16"
  bottom: "res_stage_2_17_3_top"
  top: "res_2_17"
  eltwise_param {
    operation: SUM
  }
}
layer {
  name: "res_2_17_relu"
  type: "ReLU"
  bottom: "res_2_17"
  top: "res_2_17"
}
layer {
  name: "res_stage_2_18_1"
  type: "Convolution"
  bottom: "res_2_17"
  top: "res_stage_2_18_1"
  convolution_param {
    num_output: 128
    pad: 0
    kernel_size: 1
    stride: 1
    weight_filler {
      type: "msra"
    }
    bias_term: false
  }
}
layer {
  name: "bn_stage_2_18_1"
  type: "BatchNorm"
  bottom: "res_stage_2_18_1"
  top: "res_stage_2_18_1"
  batch_norm_param {
      use_global_stats: false
  }
}
layer {
  name: "scale_stage_2_18_1"  
  type: "Scale"
  bottom: "res_stage_2_18_1"
  top: "res_stage_2_18_1_top"
  scale_param {
	bias_term: true
  }
}
 layer {
  name: "res_stage_2_18_1_relu"
  type: "ReLU"
  bottom: "res_stage_2_18_1_top"
  top: "res_stage_2_18_1_top"
}
layer {
  name: "res_stage_2_18_2"
  type: "Convolution"
  bottom: "res_stage_2_18_1_top"
  top: "res_stage_2_18_2"
  convolution_param {
    num_output: 128
    pad: 1
    kernel_size: 3
    stride: 1
    weight_filler {
      type: "msra"
    }
    bias_term: false
  }
}
layer {
  name: "bn_stage_2_18_2"
  type: "BatchNorm"
  bottom: "res_stage_2_18_2"
  top: "res_stage_2_18_2"
  batch_norm_param {
      use_global_stats: false
  }
}
layer {
  name: "scale_stage_2_18_2"  
  type: "Scale"
  bottom: "res_stage_2_18_2"
  top: "res_stage_2_18_2_top"
  scale_param {
	bias_term: true
  }
}
 layer {
  name: "res_stage_2_18_2_relu"
  type: "ReLU"
  bottom: "res_stage_2_18_2_top"
  top: "res_stage_2_18_2_top"
}
layer {
  name: "res_stage_2_18_3"
  type: "Convolution"
  bottom: "res_stage_2_18_2_top"
  top: "res_stage_2_18_3"
  convolution_param {
    num_output: 512
    pad: 0
    kernel_size: 1
    stride: 1
    weight_filler {
      type: "msra"
    }
    bias_term: false
  }
}
layer {
  name: "bn_stage_2_18_3"
  type: "BatchNorm"
  bottom: "res_stage_2_18_3"
  top: "res_stage_2_18_3"
  batch_norm_param {
      use_global_stats: false
  }
}
layer {
  name: "scale_stage_2_18_3"  
  type: "Scale"
  bottom: "res_stage_2_18_3"
  top: "res_stage_2_18_3_top"
  scale_param {
	bias_term: true
  }
}
 layer {
  name: "res_2_18"
  type: "Eltwise"
  bottom: "res_2_17"
  bottom: "res_stage_2_18_3_top"
  top: "res_2_18"
  eltwise_param {
    operation: SUM
  }
}
layer {
  name: "res_2_18_relu"
  type: "ReLU"
  bottom: "res_2_18"
  top: "res_2_18"
}
layer {
  name: "res_stage_2_19_1"
  type: "Convolution"
  bottom: "res_2_18"
  top: "res_stage_2_19_1"
  convolution_param {
    num_output: 128
    pad: 0
    kernel_size: 1
    stride: 1
    weight_filler {
      type: "msra"
    }
    bias_term: false
  }
}
layer {
  name: "bn_stage_2_19_1"
  type: "BatchNorm"
  bottom: "res_stage_2_19_1"
  top: "res_stage_2_19_1"
  batch_norm_param {
      use_global_stats: false
  }
}
layer {
  name: "scale_stage_2_19_1"  
  type: "Scale"
  bottom: "res_stage_2_19_1"
  top: "res_stage_2_19_1_top"
  scale_param {
	bias_term: true
  }
}
 layer {
  name: "res_stage_2_19_1_relu"
  type: "ReLU"
  bottom: "res_stage_2_19_1_top"
  top: "res_stage_2_19_1_top"
}
layer {
  name: "res_stage_2_19_2"
  type: "Convolution"
  bottom: "res_stage_2_19_1_top"
  top: "res_stage_2_19_2"
  convolution_param {
    num_output: 128
    pad: 1
    kernel_size: 3
    stride: 1
    weight_filler {
      type: "msra"
    }
    bias_term: false
  }
}
layer {
  name: "bn_stage_2_19_2"
  type: "BatchNorm"
  bottom: "res_stage_2_19_2"
  top: "res_stage_2_19_2"
  batch_norm_param {
      use_global_stats: false
  }
}
layer {
  name: "scale_stage_2_19_2"  
  type: "Scale"
  bottom: "res_stage_2_19_2"
  top: "res_stage_2_19_2_top"
  scale_param {
	bias_term: true
  }
}
 layer {
  name: "res_stage_2_19_2_relu"
  type: "ReLU"
  bottom: "res_stage_2_19_2_top"
  top: "res_stage_2_19_2_top"
}
layer {
  name: "res_stage_2_19_3"
  type: "Convolution"
  bottom: "res_stage_2_19_2_top"
  top: "res_stage_2_19_3"
  convolution_param {
    num_output: 512
    pad: 0
    kernel_size: 1
    stride: 1
    weight_filler {
      type: "msra"
    }
    bias_term: false
  }
}
layer {
  name: "bn_stage_2_19_3"
  type: "BatchNorm"
  bottom: "res_stage_2_19_3"
  top: "res_stage_2_19_3"
  batch_norm_param {
      use_global_stats: false
  }
}
layer {
  name: "scale_stage_2_19_3"  
  type: "Scale"
  bottom: "res_stage_2_19_3"
  top: "res_stage_2_19_3_top"
  scale_param {
	bias_term: true
  }
}
 layer {
  name: "res_2_19"
  type: "Eltwise"
  bottom: "res_2_18"
  bottom: "res_stage_2_19_3_top"
  top: "res_2_19"
  eltwise_param {
    operation: SUM
  }
}
layer {
  name: "res_2_19_relu"
  type: "ReLU"
  bottom: "res_2_19"
  top: "res_2_19"
}
layer {
  name: "res_stage_2_20_1"
  type: "Convolution"
  bottom: "res_2_19"
  top: "res_stage_2_20_1"
  convolution_param {
    num_output: 128
    pad: 0
    kernel_size: 1
    stride: 1
    weight_filler {
      type: "msra"
    }
    bias_term: false
  }
}
layer {
  name: "bn_stage_2_20_1"
  type: "BatchNorm"
  bottom: "res_stage_2_20_1"
  top: "res_stage_2_20_1"
  batch_norm_param {
      use_global_stats: false
  }
}
layer {
  name: "scale_stage_2_20_1"  
  type: "Scale"
  bottom: "res_stage_2_20_1"
  top: "res_stage_2_20_1_top"
  scale_param {
	bias_term: true
  }
}
 layer {
  name: "res_stage_2_20_1_relu"
  type: "ReLU"
  bottom: "res_stage_2_20_1_top"
  top: "res_stage_2_20_1_top"
}
layer {
  name: "res_stage_2_20_2"
  type: "Convolution"
  bottom: "res_stage_2_20_1_top"
  top: "res_stage_2_20_2"
  convolution_param {
    num_output: 128
    pad: 1
    kernel_size: 3
    stride: 1
    weight_filler {
      type: "msra"
    }
    bias_term: false
  }
}
layer {
  name: "bn_stage_2_20_2"
  type: "BatchNorm"
  bottom: "res_stage_2_20_2"
  top: "res_stage_2_20_2"
  batch_norm_param {
      use_global_stats: false
  }
}
layer {
  name: "scale_stage_2_20_2"  
  type: "Scale"
  bottom: "res_stage_2_20_2"
  top: "res_stage_2_20_2_top"
  scale_param {
	bias_term: true
  }
}
 layer {
  name: "res_stage_2_20_2_relu"
  type: "ReLU"
  bottom: "res_stage_2_20_2_top"
  top: "res_stage_2_20_2_top"
}
layer {
  name: "res_stage_2_20_3"
  type: "Convolution"
  bottom: "res_stage_2_20_2_top"
  top: "res_stage_2_20_3"
  convolution_param {
    num_output: 512
    pad: 0
    kernel_size: 1
    stride: 1
    weight_filler {
      type: "msra"
    }
    bias_term: false
  }
}
layer {
  name: "bn_stage_2_20_3"
  type: "BatchNorm"
  bottom: "res_stage_2_20_3"
  top: "res_stage_2_20_3"
  batch_norm_param {
      use_global_stats: false
  }
}
layer {
  name: "scale_stage_2_20_3"  
  type: "Scale"
  bottom: "res_stage_2_20_3"
  top: "res_stage_2_20_3_top"
  scale_param {
	bias_term: true
  }
}
 layer {
  name: "res_2_20"
  type: "Eltwise"
  bottom: "res_2_19"
  bottom: "res_stage_2_20_3_top"
  top: "res_2_20"
  eltwise_param {
    operation: SUM
  }
}
layer {
  name: "res_2_20_relu"
  type: "ReLU"
  bottom: "res_2_20"
  top: "res_2_20"
}
layer {
  name: "res_stage_2_21_1"
  type: "Convolution"
  bottom: "res_2_20"
  top: "res_stage_2_21_1"
  convolution_param {
    num_output: 128
    pad: 0
    kernel_size: 1
    stride: 1
    weight_filler {
      type: "msra"
    }
    bias_term: false
  }
}
layer {
  name: "bn_stage_2_21_1"
  type: "BatchNorm"
  bottom: "res_stage_2_21_1"
  top: "res_stage_2_21_1"
  batch_norm_param {
      use_global_stats: false
  }
}
layer {
  name: "scale_stage_2_21_1"  
  type: "Scale"
  bottom: "res_stage_2_21_1"
  top: "res_stage_2_21_1_top"
  scale_param {
	bias_term: true
  }
}
 layer {
  name: "res_stage_2_21_1_relu"
  type: "ReLU"
  bottom: "res_stage_2_21_1_top"
  top: "res_stage_2_21_1_top"
}
layer {
  name: "res_stage_2_21_2"
  type: "Convolution"
  bottom: "res_stage_2_21_1_top"
  top: "res_stage_2_21_2"
  convolution_param {
    num_output: 128
    pad: 1
    kernel_size: 3
    stride: 1
    weight_filler {
      type: "msra"
    }
    bias_term: false
  }
}
layer {
  name: "bn_stage_2_21_2"
  type: "BatchNorm"
  bottom: "res_stage_2_21_2"
  top: "res_stage_2_21_2"
  batch_norm_param {
      use_global_stats: false
  }
}
layer {
  name: "scale_stage_2_21_2"  
  type: "Scale"
  bottom: "res_stage_2_21_2"
  top: "res_stage_2_21_2_top"
  scale_param {
	bias_term: true
  }
}
 layer {
  name: "res_stage_2_21_2_relu"
  type: "ReLU"
  bottom: "res_stage_2_21_2_top"
  top: "res_stage_2_21_2_top"
}
layer {
  name: "res_stage_2_21_3"
  type: "Convolution"
  bottom: "res_stage_2_21_2_top"
  top: "res_stage_2_21_3"
  convolution_param {
    num_output: 512
    pad: 0
    kernel_size: 1
    stride: 1
    weight_filler {
      type: "msra"
    }
    bias_term: false
  }
}
layer {
  name: "bn_stage_2_21_3"
  type: "BatchNorm"
  bottom: "res_stage_2_21_3"
  top: "res_stage_2_21_3"
  batch_norm_param {
      use_global_stats: false
  }
}
layer {
  name: "scale_stage_2_21_3"  
  type: "Scale"
  bottom: "res_stage_2_21_3"
  top: "res_stage_2_21_3_top"
  scale_param {
	bias_term: true
  }
}
 layer {
  name: "res_2_21"
  type: "Eltwise"
  bottom: "res_2_20"
  bottom: "res_stage_2_21_3_top"
  top: "res_2_21"
  eltwise_param {
    operation: SUM
  }
}
layer {
  name: "res_2_21_relu"
  type: "ReLU"
  bottom: "res_2_21"
  top: "res_2_21"
}
layer {
  name: "res_stage_2_22_1"
  type: "Convolution"
  bottom: "res_2_21"
  top: "res_stage_2_22_1"
  convolution_param {
    num_output: 128
    pad: 0
    kernel_size: 1
    stride: 1
    weight_filler {
      type: "msra"
    }
    bias_term: false
  }
}
layer {
  name: "bn_stage_2_22_1"
  type: "BatchNorm"
  bottom: "res_stage_2_22_1"
  top: "res_stage_2_22_1"
  batch_norm_param {
      use_global_stats: false
  }
}
layer {
  name: "scale_stage_2_22_1"  
  type: "Scale"
  bottom: "res_stage_2_22_1"
  top: "res_stage_2_22_1_top"
  scale_param {
	bias_term: true
  }
}
 layer {
  name: "res_stage_2_22_1_relu"
  type: "ReLU"
  bottom: "res_stage_2_22_1_top"
  top: "res_stage_2_22_1_top"
}
layer {
  name: "res_stage_2_22_2"
  type: "Convolution"
  bottom: "res_stage_2_22_1_top"
  top: "res_stage_2_22_2"
  convolution_param {
    num_output: 128
    pad: 1
    kernel_size: 3
    stride: 1
    weight_filler {
      type: "msra"
    }
    bias_term: false
  }
}
layer {
  name: "bn_stage_2_22_2"
  type: "BatchNorm"
  bottom: "res_stage_2_22_2"
  top: "res_stage_2_22_2"
  batch_norm_param {
      use_global_stats: false
  }
}
layer {
  name: "scale_stage_2_22_2"  
  type: "Scale"
  bottom: "res_stage_2_22_2"
  top: "res_stage_2_22_2_top"
  scale_param {
	bias_term: true
  }
}
 layer {
  name: "res_stage_2_22_2_relu"
  type: "ReLU"
  bottom: "res_stage_2_22_2_top"
  top: "res_stage_2_22_2_top"
}
layer {
  name: "res_stage_2_22_3"
  type: "Convolution"
  bottom: "res_stage_2_22_2_top"
  top: "res_stage_2_22_3"
  convolution_param {
    num_output: 512
    pad: 0
    kernel_size: 1
    stride: 1
    weight_filler {
      type: "msra"
    }
    bias_term: false
  }
}
layer {
  name: "bn_stage_2_22_3"
  type: "BatchNorm"
  bottom: "res_stage_2_22_3"
  top: "res_stage_2_22_3"
  batch_norm_param {
      use_global_stats: false
  }
}
layer {
  name: "scale_stage_2_22_3"  
  type: "Scale"
  bottom: "res_stage_2_22_3"
  top: "res_stage_2_22_3_top"
  scale_param {
	bias_term: true
  }
}
 layer {
  name: "res_2_22"
  type: "Eltwise"
  bottom: "res_2_21"
  bottom: "res_stage_2_22_3_top"
  top: "res_2_22"
  eltwise_param {
    operation: SUM
  }
}
layer {
  name: "res_2_22_relu"
  type: "ReLU"
  bottom: "res_2_22"
  top: "res_2_22"
}
layer {
  name: "res_stage_2_23_1"
  type: "Convolution"
  bottom: "res_2_22"
  top: "res_stage_2_23_1"
  convolution_param {
    num_output: 128
    pad: 0
    kernel_size: 1
    stride: 1
    weight_filler {
      type: "msra"
    }
    bias_term: false
  }
}
layer {
  name: "bn_stage_2_23_1"
  type: "BatchNorm"
  bottom: "res_stage_2_23_1"
  top: "res_stage_2_23_1"
  batch_norm_param {
      use_global_stats: false
  }
}
layer {
  name: "scale_stage_2_23_1"  
  type: "Scale"
  bottom: "res_stage_2_23_1"
  top: "res_stage_2_23_1_top"
  scale_param {
	bias_term: true
  }
}
 layer {
  name: "res_stage_2_23_1_relu"
  type: "ReLU"
  bottom: "res_stage_2_23_1_top"
  top: "res_stage_2_23_1_top"
}
layer {
  name: "res_stage_2_23_2"
  type: "Convolution"
  bottom: "res_stage_2_23_1_top"
  top: "res_stage_2_23_2"
  convolution_param {
    num_output: 128
    pad: 1
    kernel_size: 3
    stride: 1
    weight_filler {
      type: "msra"
    }
    bias_term: false
  }
}
layer {
  name: "bn_stage_2_23_2"
  type: "BatchNorm"
  bottom: "res_stage_2_23_2"
  top: "res_stage_2_23_2"
  batch_norm_param {
      use_global_stats: false
  }
}
layer {
  name: "scale_stage_2_23_2"  
  type: "Scale"
  bottom: "res_stage_2_23_2"
  top: "res_stage_2_23_2_top"
  scale_param {
	bias_term: true
  }
}
 layer {
  name: "res_stage_2_23_2_relu"
  type: "ReLU"
  bottom: "res_stage_2_23_2_top"
  top: "res_stage_2_23_2_top"
}
layer {
  name: "res_stage_2_23_3"
  type: "Convolution"
  bottom: "res_stage_2_23_2_top"
  top: "res_stage_2_23_3"
  convolution_param {
    num_output: 512
    pad: 0
    kernel_size: 1
    stride: 1
    weight_filler {
      type: "msra"
    }
    bias_term: false
  }
}
layer {
  name: "bn_stage_2_23_3"
  type: "BatchNorm"
  bottom: "res_stage_2_23_3"
  top: "res_stage_2_23_3"
  batch_norm_param {
      use_global_stats: false
  }
}
layer {
  name: "scale_stage_2_23_3"  
  type: "Scale"
  bottom: "res_stage_2_23_3"
  top: "res_stage_2_23_3_top"
  scale_param {
	bias_term: true
  }
}
 layer {
  name: "res_2_23"
  type: "Eltwise"
  bottom: "res_2_22"
  bottom: "res_stage_2_23_3_top"
  top: "res_2_23"
  eltwise_param {
    operation: SUM
  }
}
layer {
  name: "res_2_23_relu"
  type: "ReLU"
  bottom: "res_2_23"
  top: "res_2_23"
}
layer {
  name: "res_stage_2_24_1"
  type: "Convolution"
  bottom: "res_2_23"
  top: "res_stage_2_24_1"
  convolution_param {
    num_output: 128
    pad: 0
    kernel_size: 1
    stride: 1
    weight_filler {
      type: "msra"
    }
    bias_term: false
  }
}
layer {
  name: "bn_stage_2_24_1"
  type: "BatchNorm"
  bottom: "res_stage_2_24_1"
  top: "res_stage_2_24_1"
  batch_norm_param {
      use_global_stats: false
  }
}
layer {
  name: "scale_stage_2_24_1"  
  type: "Scale"
  bottom: "res_stage_2_24_1"
  top: "res_stage_2_24_1_top"
  scale_param {
	bias_term: true
  }
}
 layer {
  name: "res_stage_2_24_1_relu"
  type: "ReLU"
  bottom: "res_stage_2_24_1_top"
  top: "res_stage_2_24_1_top"
}
layer {
  name: "res_stage_2_24_2"
  type: "Convolution"
  bottom: "res_stage_2_24_1_top"
  top: "res_stage_2_24_2"
  convolution_param {
    num_output: 128
    pad: 1
    kernel_size: 3
    stride: 1
    weight_filler {
      type: "msra"
    }
    bias_term: false
  }
}
layer {
  name: "bn_stage_2_24_2"
  type: "BatchNorm"
  bottom: "res_stage_2_24_2"
  top: "res_stage_2_24_2"
  batch_norm_param {
      use_global_stats: false
  }
}
layer {
  name: "scale_stage_2_24_2"  
  type: "Scale"
  bottom: "res_stage_2_24_2"
  top: "res_stage_2_24_2_top"
  scale_param {
	bias_term: true
  }
}
 layer {
  name: "res_stage_2_24_2_relu"
  type: "ReLU"
  bottom: "res_stage_2_24_2_top"
  top: "res_stage_2_24_2_top"
}
layer {
  name: "res_stage_2_24_3"
  type: "Convolution"
  bottom: "res_stage_2_24_2_top"
  top: "res_stage_2_24_3"
  convolution_param {
    num_output: 512
    pad: 0
    kernel_size: 1
    stride: 1
    weight_filler {
      type: "msra"
    }
    bias_term: false
  }
}
layer {
  name: "bn_stage_2_24_3"
  type: "BatchNorm"
  bottom: "res_stage_2_24_3"
  top: "res_stage_2_24_3"
  batch_norm_param {
      use_global_stats: false
  }
}
layer {
  name: "scale_stage_2_24_3"  
  type: "Scale"
  bottom: "res_stage_2_24_3"
  top: "res_stage_2_24_3_top"
  scale_param {
	bias_term: true
  }
}
 layer {
  name: "res_2_24"
  type: "Eltwise"
  bottom: "res_2_23"
  bottom: "res_stage_2_24_3_top"
  top: "res_2_24"
  eltwise_param {
    operation: SUM
  }
}
layer {
  name: "res_2_24_relu"
  type: "ReLU"
  bottom: "res_2_24"
  top: "res_2_24"
}
layer {
  name: "res_stage_2_25_1"
  type: "Convolution"
  bottom: "res_2_24"
  top: "res_stage_2_25_1"
  convolution_param {
    num_output: 128
    pad: 0
    kernel_size: 1
    stride: 1
    weight_filler {
      type: "msra"
    }
    bias_term: false
  }
}
layer {
  name: "bn_stage_2_25_1"
  type: "BatchNorm"
  bottom: "res_stage_2_25_1"
  top: "res_stage_2_25_1"
  batch_norm_param {
      use_global_stats: false
  }
}
layer {
  name: "scale_stage_2_25_1"  
  type: "Scale"
  bottom: "res_stage_2_25_1"
  top: "res_stage_2_25_1_top"
  scale_param {
	bias_term: true
  }
}
 layer {
  name: "res_stage_2_25_1_relu"
  type: "ReLU"
  bottom: "res_stage_2_25_1_top"
  top: "res_stage_2_25_1_top"
}
layer {
  name: "res_stage_2_25_2"
  type: "Convolution"
  bottom: "res_stage_2_25_1_top"
  top: "res_stage_2_25_2"
  convolution_param {
    num_output: 128
    pad: 1
    kernel_size: 3
    stride: 1
    weight_filler {
      type: "msra"
    }
    bias_term: false
  }
}
layer {
  name: "bn_stage_2_25_2"
  type: "BatchNorm"
  bottom: "res_stage_2_25_2"
  top: "res_stage_2_25_2"
  batch_norm_param {
      use_global_stats: false
  }
}
layer {
  name: "scale_stage_2_25_2"  
  type: "Scale"
  bottom: "res_stage_2_25_2"
  top: "res_stage_2_25_2_top"
  scale_param {
	bias_term: true
  }
}
 layer {
  name: "res_stage_2_25_2_relu"
  type: "ReLU"
  bottom: "res_stage_2_25_2_top"
  top: "res_stage_2_25_2_top"
}
layer {
  name: "res_stage_2_25_3"
  type: "Convolution"
  bottom: "res_stage_2_25_2_top"
  top: "res_stage_2_25_3"
  convolution_param {
    num_output: 512
    pad: 0
    kernel_size: 1
    stride: 1
    weight_filler {
      type: "msra"
    }
    bias_term: false
  }
}
layer {
  name: "bn_stage_2_25_3"
  type: "BatchNorm"
  bottom: "res_stage_2_25_3"
  top: "res_stage_2_25_3"
  batch_norm_param {
      use_global_stats: false
  }
}
layer {
  name: "scale_stage_2_25_3"  
  type: "Scale"
  bottom: "res_stage_2_25_3"
  top: "res_stage_2_25_3_top"
  scale_param {
	bias_term: true
  }
}
 layer {
  name: "res_2_25"
  type: "Eltwise"
  bottom: "res_2_24"
  bottom: "res_stage_2_25_3_top"
  top: "res_2_25"
  eltwise_param {
    operation: SUM
  }
}
layer {
  name: "res_2_25_relu"
  type: "ReLU"
  bottom: "res_2_25"
  top: "res_2_25"
}
layer {
  name: "res_stage_2_26_1"
  type: "Convolution"
  bottom: "res_2_25"
  top: "res_stage_2_26_1"
  convolution_param {
    num_output: 128
    pad: 0
    kernel_size: 1
    stride: 1
    weight_filler {
      type: "msra"
    }
    bias_term: false
  }
}
layer {
  name: "bn_stage_2_26_1"
  type: "BatchNorm"
  bottom: "res_stage_2_26_1"
  top: "res_stage_2_26_1"
  batch_norm_param {
      use_global_stats: false
  }
}
layer {
  name: "scale_stage_2_26_1"  
  type: "Scale"
  bottom: "res_stage_2_26_1"
  top: "res_stage_2_26_1_top"
  scale_param {
	bias_term: true
  }
}
 layer {
  name: "res_stage_2_26_1_relu"
  type: "ReLU"
  bottom: "res_stage_2_26_1_top"
  top: "res_stage_2_26_1_top"
}
layer {
  name: "res_stage_2_26_2"
  type: "Convolution"
  bottom: "res_stage_2_26_1_top"
  top: "res_stage_2_26_2"
  convolution_param {
    num_output: 128
    pad: 1
    kernel_size: 3
    stride: 1
    weight_filler {
      type: "msra"
    }
    bias_term: false
  }
}
layer {
  name: "bn_stage_2_26_2"
  type: "BatchNorm"
  bottom: "res_stage_2_26_2"
  top: "res_stage_2_26_2"
  batch_norm_param {
      use_global_stats: false
  }
}
layer {
  name: "scale_stage_2_26_2"  
  type: "Scale"
  bottom: "res_stage_2_26_2"
  top: "res_stage_2_26_2_top"
  scale_param {
	bias_term: true
  }
}
 layer {
  name: "res_stage_2_26_2_relu"
  type: "ReLU"
  bottom: "res_stage_2_26_2_top"
  top: "res_stage_2_26_2_top"
}
layer {
  name: "res_stage_2_26_3"
  type: "Convolution"
  bottom: "res_stage_2_26_2_top"
  top: "res_stage_2_26_3"
  convolution_param {
    num_output: 512
    pad: 0
    kernel_size: 1
    stride: 1
    weight_filler {
      type: "msra"
    }
    bias_term: false
  }
}
layer {
  name: "bn_stage_2_26_3"
  type: "BatchNorm"
  bottom: "res_stage_2_26_3"
  top: "res_stage_2_26_3"
  batch_norm_param {
      use_global_stats: false
  }
}
layer {
  name: "scale_stage_2_26_3"  
  type: "Scale"
  bottom: "res_stage_2_26_3"
  top: "res_stage_2_26_3_top"
  scale_param {
	bias_term: true
  }
}
 layer {
  name: "res_2_26"
  type: "Eltwise"
  bottom: "res_2_25"
  bottom: "res_stage_2_26_3_top"
  top: "res_2_26"
  eltwise_param {
    operation: SUM
  }
}
layer {
  name: "res_2_26_relu"
  type: "ReLU"
  bottom: "res_2_26"
  top: "res_2_26"
}
layer {
  name: "res_stage_2_27_1"
  type: "Convolution"
  bottom: "res_2_26"
  top: "res_stage_2_27_1"
  convolution_param {
    num_output: 128
    pad: 0
    kernel_size: 1
    stride: 1
    weight_filler {
      type: "msra"
    }
    bias_term: false
  }
}
layer {
  name: "bn_stage_2_27_1"
  type: "BatchNorm"
  bottom: "res_stage_2_27_1"
  top: "res_stage_2_27_1"
  batch_norm_param {
      use_global_stats: false
  }
}
layer {
  name: "scale_stage_2_27_1"  
  type: "Scale"
  bottom: "res_stage_2_27_1"
  top: "res_stage_2_27_1_top"
  scale_param {
	bias_term: true
  }
}
 layer {
  name: "res_stage_2_27_1_relu"
  type: "ReLU"
  bottom: "res_stage_2_27_1_top"
  top: "res_stage_2_27_1_top"
}
layer {
  name: "res_stage_2_27_2"
  type: "Convolution"
  bottom: "res_stage_2_27_1_top"
  top: "res_stage_2_27_2"
  convolution_param {
    num_output: 128
    pad: 1
    kernel_size: 3
    stride: 1
    weight_filler {
      type: "msra"
    }
    bias_term: false
  }
}
layer {
  name: "bn_stage_2_27_2"
  type: "BatchNorm"
  bottom: "res_stage_2_27_2"
  top: "res_stage_2_27_2"
  batch_norm_param {
      use_global_stats: false
  }
}
layer {
  name: "scale_stage_2_27_2"  
  type: "Scale"
  bottom: "res_stage_2_27_2"
  top: "res_stage_2_27_2_top"
  scale_param {
	bias_term: true
  }
}
 layer {
  name: "res_stage_2_27_2_relu"
  type: "ReLU"
  bottom: "res_stage_2_27_2_top"
  top: "res_stage_2_27_2_top"
}
layer {
  name: "res_stage_2_27_3"
  type: "Convolution"
  bottom: "res_stage_2_27_2_top"
  top: "res_stage_2_27_3"
  convolution_param {
    num_output: 512
    pad: 0
    kernel_size: 1
    stride: 1
    weight_filler {
      type: "msra"
    }
    bias_term: false
  }
}
layer {
  name: "bn_stage_2_27_3"
  type: "BatchNorm"
  bottom: "res_stage_2_27_3"
  top: "res_stage_2_27_3"
  batch_norm_param {
      use_global_stats: false
  }
}
layer {
  name: "scale_stage_2_27_3"  
  type: "Scale"
  bottom: "res_stage_2_27_3"
  top: "res_stage_2_27_3_top"
  scale_param {
	bias_term: true
  }
}
 layer {
  name: "res_2_27"
  type: "Eltwise"
  bottom: "res_2_26"
  bottom: "res_stage_2_27_3_top"
  top: "res_2_27"
  eltwise_param {
    operation: SUM
  }
}
layer {
  name: "res_2_27_relu"
  type: "ReLU"
  bottom: "res_2_27"
  top: "res_2_27"
}
layer {
  name: "res_stage_2_28_1"
  type: "Convolution"
  bottom: "res_2_27"
  top: "res_stage_2_28_1"
  convolution_param {
    num_output: 128
    pad: 0
    kernel_size: 1
    stride: 1
    weight_filler {
      type: "msra"
    }
    bias_term: false
  }
}
layer {
  name: "bn_stage_2_28_1"
  type: "BatchNorm"
  bottom: "res_stage_2_28_1"
  top: "res_stage_2_28_1"
  batch_norm_param {
      use_global_stats: false
  }
}
layer {
  name: "scale_stage_2_28_1"  
  type: "Scale"
  bottom: "res_stage_2_28_1"
  top: "res_stage_2_28_1_top"
  scale_param {
	bias_term: true
  }
}
 layer {
  name: "res_stage_2_28_1_relu"
  type: "ReLU"
  bottom: "res_stage_2_28_1_top"
  top: "res_stage_2_28_1_top"
}
layer {
  name: "res_stage_2_28_2"
  type: "Convolution"
  bottom: "res_stage_2_28_1_top"
  top: "res_stage_2_28_2"
  convolution_param {
    num_output: 128
    pad: 1
    kernel_size: 3
    stride: 1
    weight_filler {
      type: "msra"
    }
    bias_term: false
  }
}
layer {
  name: "bn_stage_2_28_2"
  type: "BatchNorm"
  bottom: "res_stage_2_28_2"
  top: "res_stage_2_28_2"
  batch_norm_param {
      use_global_stats: false
  }
}
layer {
  name: "scale_stage_2_28_2"  
  type: "Scale"
  bottom: "res_stage_2_28_2"
  top: "res_stage_2_28_2_top"
  scale_param {
	bias_term: true
  }
}
 layer {
  name: "res_stage_2_28_2_relu"
  type: "ReLU"
  bottom: "res_stage_2_28_2_top"
  top: "res_stage_2_28_2_top"
}
layer {
  name: "res_stage_2_28_3"
  type: "Convolution"
  bottom: "res_stage_2_28_2_top"
  top: "res_stage_2_28_3"
  convolution_param {
    num_output: 512
    pad: 0
    kernel_size: 1
    stride: 1
    weight_filler {
      type: "msra"
    }
    bias_term: false
  }
}
layer {
  name: "bn_stage_2_28_3"
  type: "BatchNorm"
  bottom: "res_stage_2_28_3"
  top: "res_stage_2_28_3"
  batch_norm_param {
      use_global_stats: false
  }
}
layer {
  name: "scale_stage_2_28_3"  
  type: "Scale"
  bottom: "res_stage_2_28_3"
  top: "res_stage_2_28_3_top"
  scale_param {
	bias_term: true
  }
}
 layer {
  name: "res_2_28"
  type: "Eltwise"
  bottom: "res_2_27"
  bottom: "res_stage_2_28_3_top"
  top: "res_2_28"
  eltwise_param {
    operation: SUM
  }
}
layer {
  name: "res_2_28_relu"
  type: "ReLU"
  bottom: "res_2_28"
  top: "res_2_28"
}
layer {
  name: "res_stage_2_29_1"
  type: "Convolution"
  bottom: "res_2_28"
  top: "res_stage_2_29_1"
  convolution_param {
    num_output: 128
    pad: 0
    kernel_size: 1
    stride: 1
    weight_filler {
      type: "msra"
    }
    bias_term: false
  }
}
layer {
  name: "bn_stage_2_29_1"
  type: "BatchNorm"
  bottom: "res_stage_2_29_1"
  top: "res_stage_2_29_1"
  batch_norm_param {
      use_global_stats: false
  }
}
layer {
  name: "scale_stage_2_29_1"  
  type: "Scale"
  bottom: "res_stage_2_29_1"
  top: "res_stage_2_29_1_top"
  scale_param {
	bias_term: true
  }
}
 layer {
  name: "res_stage_2_29_1_relu"
  type: "ReLU"
  bottom: "res_stage_2_29_1_top"
  top: "res_stage_2_29_1_top"
}
layer {
  name: "res_stage_2_29_2"
  type: "Convolution"
  bottom: "res_stage_2_29_1_top"
  top: "res_stage_2_29_2"
  convolution_param {
    num_output: 128
    pad: 1
    kernel_size: 3
    stride: 1
    weight_filler {
      type: "msra"
    }
    bias_term: false
  }
}
layer {
  name: "bn_stage_2_29_2"
  type: "BatchNorm"
  bottom: "res_stage_2_29_2"
  top: "res_stage_2_29_2"
  batch_norm_param {
      use_global_stats: false
  }
}
layer {
  name: "scale_stage_2_29_2"  
  type: "Scale"
  bottom: "res_stage_2_29_2"
  top: "res_stage_2_29_2_top"
  scale_param {
	bias_term: true
  }
}
 layer {
  name: "res_stage_2_29_2_relu"
  type: "ReLU"
  bottom: "res_stage_2_29_2_top"
  top: "res_stage_2_29_2_top"
}
layer {
  name: "res_stage_2_29_3"
  type: "Convolution"
  bottom: "res_stage_2_29_2_top"
  top: "res_stage_2_29_3"
  convolution_param {
    num_output: 512
    pad: 0
    kernel_size: 1
    stride: 1
    weight_filler {
      type: "msra"
    }
    bias_term: false
  }
}
layer {
  name: "bn_stage_2_29_3"
  type: "BatchNorm"
  bottom: "res_stage_2_29_3"
  top: "res_stage_2_29_3"
  batch_norm_param {
      use_global_stats: false
  }
}
layer {
  name: "scale_stage_2_29_3"  
  type: "Scale"
  bottom: "res_stage_2_29_3"
  top: "res_stage_2_29_3_top"
  scale_param {
	bias_term: true
  }
}
 layer {
  name: "res_2_29"
  type: "Eltwise"
  bottom: "res_2_28"
  bottom: "res_stage_2_29_3_top"
  top: "res_2_29"
  eltwise_param {
    operation: SUM
  }
}
layer {
  name: "res_2_29_relu"
  type: "ReLU"
  bottom: "res_2_29"
  top: "res_2_29"
}
layer {
  name: "res_stage_2_30_1"
  type: "Convolution"
  bottom: "res_2_29"
  top: "res_stage_2_30_1"
  convolution_param {
    num_output: 128
    pad: 0
    kernel_size: 1
    stride: 1
    weight_filler {
      type: "msra"
    }
    bias_term: false
  }
}
layer {
  name: "bn_stage_2_30_1"
  type: "BatchNorm"
  bottom: "res_stage_2_30_1"
  top: "res_stage_2_30_1"
  batch_norm_param {
      use_global_stats: false
  }
}
layer {
  name: "scale_stage_2_30_1"  
  type: "Scale"
  bottom: "res_stage_2_30_1"
  top: "res_stage_2_30_1_top"
  scale_param {
	bias_term: true
  }
}
 layer {
  name: "res_stage_2_30_1_relu"
  type: "ReLU"
  bottom: "res_stage_2_30_1_top"
  top: "res_stage_2_30_1_top"
}
layer {
  name: "res_stage_2_30_2"
  type: "Convolution"
  bottom: "res_stage_2_30_1_top"
  top: "res_stage_2_30_2"
  convolution_param {
    num_output: 128
    pad: 1
    kernel_size: 3
    stride: 1
    weight_filler {
      type: "msra"
    }
    bias_term: false
  }
}
layer {
  name: "bn_stage_2_30_2"
  type: "BatchNorm"
  bottom: "res_stage_2_30_2"
  top: "res_stage_2_30_2"
  batch_norm_param {
      use_global_stats: false
  }
}
layer {
  name: "scale_stage_2_30_2"  
  type: "Scale"
  bottom: "res_stage_2_30_2"
  top: "res_stage_2_30_2_top"
  scale_param {
	bias_term: true
  }
}
 layer {
  name: "res_stage_2_30_2_relu"
  type: "ReLU"
  bottom: "res_stage_2_30_2_top"
  top: "res_stage_2_30_2_top"
}
layer {
  name: "res_stage_2_30_3"
  type: "Convolution"
  bottom: "res_stage_2_30_2_top"
  top: "res_stage_2_30_3"
  convolution_param {
    num_output: 512
    pad: 0
    kernel_size: 1
    stride: 1
    weight_filler {
      type: "msra"
    }
    bias_term: false
  }
}
layer {
  name: "bn_stage_2_30_3"
  type: "BatchNorm"
  bottom: "res_stage_2_30_3"
  top: "res_stage_2_30_3"
  batch_norm_param {
      use_global_stats: false
  }
}
layer {
  name: "scale_stage_2_30_3"  
  type: "Scale"
  bottom: "res_stage_2_30_3"
  top: "res_stage_2_30_3_top"
  scale_param {
	bias_term: true
  }
}
 layer {
  name: "res_2_30"
  type: "Eltwise"
  bottom: "res_2_29"
  bottom: "res_stage_2_30_3_top"
  top: "res_2_30"
  eltwise_param {
    operation: SUM
  }
}
layer {
  name: "res_2_30_relu"
  type: "ReLU"
  bottom: "res_2_30"
  top: "res_2_30"
}
layer {
  name: "res_stage_2_31_1"
  type: "Convolution"
  bottom: "res_2_30"
  top: "res_stage_2_31_1"
  convolution_param {
    num_output: 128
    pad: 0
    kernel_size: 1
    stride: 1
    weight_filler {
      type: "msra"
    }
    bias_term: false
  }
}
layer {
  name: "bn_stage_2_31_1"
  type: "BatchNorm"
  bottom: "res_stage_2_31_1"
  top: "res_stage_2_31_1"
  batch_norm_param {
      use_global_stats: false
  }
}
layer {
  name: "scale_stage_2_31_1"  
  type: "Scale"
  bottom: "res_stage_2_31_1"
  top: "res_stage_2_31_1_top"
  scale_param {
	bias_term: true
  }
}
 layer {
  name: "res_stage_2_31_1_relu"
  type: "ReLU"
  bottom: "res_stage_2_31_1_top"
  top: "res_stage_2_31_1_top"
}
layer {
  name: "res_stage_2_31_2"
  type: "Convolution"
  bottom: "res_stage_2_31_1_top"
  top: "res_stage_2_31_2"
  convolution_param {
    num_output: 128
    pad: 1
    kernel_size: 3
    stride: 1
    weight_filler {
      type: "msra"
    }
    bias_term: false
  }
}
layer {
  name: "bn_stage_2_31_2"
  type: "BatchNorm"
  bottom: "res_stage_2_31_2"
  top: "res_stage_2_31_2"
  batch_norm_param {
      use_global_stats: false
  }
}
layer {
  name: "scale_stage_2_31_2"  
  type: "Scale"
  bottom: "res_stage_2_31_2"
  top: "res_stage_2_31_2_top"
  scale_param {
	bias_term: true
  }
}
 layer {
  name: "res_stage_2_31_2_relu"
  type: "ReLU"
  bottom: "res_stage_2_31_2_top"
  top: "res_stage_2_31_2_top"
}
layer {
  name: "res_stage_2_31_3"
  type: "Convolution"
  bottom: "res_stage_2_31_2_top"
  top: "res_stage_2_31_3"
  convolution_param {
    num_output: 512
    pad: 0
    kernel_size: 1
    stride: 1
    weight_filler {
      type: "msra"
    }
    bias_term: false
  }
}
layer {
  name: "bn_stage_2_31_3"
  type: "BatchNorm"
  bottom: "res_stage_2_31_3"
  top: "res_stage_2_31_3"
  batch_norm_param {
      use_global_stats: false
  }
}
layer {
  name: "scale_stage_2_31_3"  
  type: "Scale"
  bottom: "res_stage_2_31_3"
  top: "res_stage_2_31_3_top"
  scale_param {
	bias_term: true
  }
}
 layer {
  name: "res_2_31"
  type: "Eltwise"
  bottom: "res_2_30"
  bottom: "res_stage_2_31_3_top"
  top: "res_2_31"
  eltwise_param {
    operation: SUM
  }
}
layer {
  name: "res_2_31_relu"
  type: "ReLU"
  bottom: "res_2_31"
  top: "res_2_31"
}
layer {
  name: "res_stage_2_32_1"
  type: "Convolution"
  bottom: "res_2_31"
  top: "res_stage_2_32_1"
  convolution_param {
    num_output: 128
    pad: 0
    kernel_size: 1
    stride: 1
    weight_filler {
      type: "msra"
    }
    bias_term: false
  }
}
layer {
  name: "bn_stage_2_32_1"
  type: "BatchNorm"
  bottom: "res_stage_2_32_1"
  top: "res_stage_2_32_1"
  batch_norm_param {
      use_global_stats: false
  }
}
layer {
  name: "scale_stage_2_32_1"  
  type: "Scale"
  bottom: "res_stage_2_32_1"
  top: "res_stage_2_32_1_top"
  scale_param {
	bias_term: true
  }
}
 layer {
  name: "res_stage_2_32_1_relu"
  type: "ReLU"
  bottom: "res_stage_2_32_1_top"
  top: "res_stage_2_32_1_top"
}
layer {
  name: "res_stage_2_32_2"
  type: "Convolution"
  bottom: "res_stage_2_32_1_top"
  top: "res_stage_2_32_2"
  convolution_param {
    num_output: 128
    pad: 1
    kernel_size: 3
    stride: 1
    weight_filler {
      type: "msra"
    }
    bias_term: false
  }
}
layer {
  name: "bn_stage_2_32_2"
  type: "BatchNorm"
  bottom: "res_stage_2_32_2"
  top: "res_stage_2_32_2"
  batch_norm_param {
      use_global_stats: false
  }
}
layer {
  name: "scale_stage_2_32_2"  
  type: "Scale"
  bottom: "res_stage_2_32_2"
  top: "res_stage_2_32_2_top"
  scale_param {
	bias_term: true
  }
}
 layer {
  name: "res_stage_2_32_2_relu"
  type: "ReLU"
  bottom: "res_stage_2_32_2_top"
  top: "res_stage_2_32_2_top"
}
layer {
  name: "res_stage_2_32_3"
  type: "Convolution"
  bottom: "res_stage_2_32_2_top"
  top: "res_stage_2_32_3"
  convolution_param {
    num_output: 512
    pad: 0
    kernel_size: 1
    stride: 1
    weight_filler {
      type: "msra"
    }
    bias_term: false
  }
}
layer {
  name: "bn_stage_2_32_3"
  type: "BatchNorm"
  bottom: "res_stage_2_32_3"
  top: "res_stage_2_32_3"
  batch_norm_param {
      use_global_stats: false
  }
}
layer {
  name: "scale_stage_2_32_3"  
  type: "Scale"
  bottom: "res_stage_2_32_3"
  top: "res_stage_2_32_3_top"
  scale_param {
	bias_term: true
  }
}
 layer {
  name: "res_2_32"
  type: "Eltwise"
  bottom: "res_2_31"
  bottom: "res_stage_2_32_3_top"
  top: "res_2_32"
  eltwise_param {
    operation: SUM
  }
}
layer {
  name: "res_2_32_relu"
  type: "ReLU"
  bottom: "res_2_32"
  top: "res_2_32"
}
layer {
  name: "res_3_branch1"
  type: "Convolution"
  bottom: "res_2_32"
  top: "res_3_branch1"
  convolution_param {
    num_output: 1024
    pad: 0
    kernel_size: 1
    stride: 2
    weight_filler {
      type: "msra"
    }
    bias_term: false
  }
}
layer {
  name: "bn_3_branch1"
  type: "BatchNorm"
  bottom: "res_3_branch1"
  top: "res_3_branch1"
  batch_norm_param {
      use_global_stats: false
  }
}
layer {
  name: "scale_3_branch1"  
  type: "Scale"
  bottom: "res_3_branch1"
  top: "res_3_branch1_top"
  scale_param {
	bias_term: true
  }
}
 layer {
  name: "res_stage_3_1_1"
  type: "Convolution"
  bottom: "res_2_32"
  top: "res_stage_3_1_1"
  convolution_param {
    num_output: 256
    pad: 0
    kernel_size: 1
    stride: 2
    weight_filler {
      type: "msra"
    }
    bias_term: false
  }
}
layer {
  name: "bn_stage_3_1_1"
  type: "BatchNorm"
  bottom: "res_stage_3_1_1"
  top: "res_stage_3_1_1"
  batch_norm_param {
      use_global_stats: false
  }
}
layer {
  name: "scale_stage_3_1_1"  
  type: "Scale"
  bottom: "res_stage_3_1_1"
  top: "res_stage_3_1_1_top"
  scale_param {
	bias_term: true
  }
}
 layer {
  name: "res_stage_3_1_1_relu"
  type: "ReLU"
  bottom: "res_stage_3_1_1_top"
  top: "res_stage_3_1_1_top"
}
layer {
  name: "res_stage_3_1_2"
  type: "Convolution"
  bottom: "res_stage_3_1_1_top"
  top: "res_stage_3_1_2"
  convolution_param {
    num_output: 256
    pad: 1
    kernel_size: 3
    stride: 1
    weight_filler {
      type: "msra"
    }
    bias_term: false
  }
}
layer {
  name: "bn_stage_3_1_2"
  type: "BatchNorm"
  bottom: "res_stage_3_1_2"
  top: "res_stage_3_1_2"
  batch_norm_param {
      use_global_stats: false
  }
}
layer {
  name: "scale_stage_3_1_2"  
  type: "Scale"
  bottom: "res_stage_3_1_2"
  top: "res_stage_3_1_2_top"
  scale_param {
	bias_term: true
  }
}
 layer {
  name: "res_stage_3_1_2_relu"
  type: "ReLU"
  bottom: "res_stage_3_1_2_top"
  top: "res_stage_3_1_2_top"
}
layer {
  name: "res_stage_3_1_3"
  type: "Convolution"
  bottom: "res_stage_3_1_2_top"
  top: "res_stage_3_1_3"
  convolution_param {
    num_output: 1024
    pad: 0
    kernel_size: 1
    stride: 1
    weight_filler {
      type: "msra"
    }
    bias_term: false
  }
}
layer {
  name: "bn_stage_3_1_3"
  type: "BatchNorm"
  bottom: "res_stage_3_1_3"
  top: "res_stage_3_1_3"
  batch_norm_param {
      use_global_stats: false
  }
}
layer {
  name: "scale_stage_3_1_3"  
  type: "Scale"
  bottom: "res_stage_3_1_3"
  top: "res_stage_3_1_3_top"
  scale_param {
	bias_term: true
  }
}
 layer {
  name: "res_3_1"
  type: "Eltwise"
  bottom: "res_3_branch1_top"
  bottom: "res_stage_3_1_3_top"
  top: "res_3_1"
  eltwise_param {
    operation: SUM
  }
}
layer {
  name: "res_3_1_relu"
  type: "ReLU"
  bottom: "res_3_1"
  top: "res_3_1"
}
layer {
  name: "res_stage_3_2_1"
  type: "Convolution"
  bottom: "res_3_1"
  top: "res_stage_3_2_1"
  convolution_param {
    num_output: 256
    pad: 0
    kernel_size: 1
    stride: 1
    weight_filler {
      type: "msra"
    }
    bias_term: false
  }
}
layer {
  name: "bn_stage_3_2_1"
  type: "BatchNorm"
  bottom: "res_stage_3_2_1"
  top: "res_stage_3_2_1"
  batch_norm_param {
      use_global_stats: false
  }
}
layer {
  name: "scale_stage_3_2_1"  
  type: "Scale"
  bottom: "res_stage_3_2_1"
  top: "res_stage_3_2_1_top"
  scale_param {
	bias_term: true
  }
}
 layer {
  name: "res_stage_3_2_1_relu"
  type: "ReLU"
  bottom: "res_stage_3_2_1_top"
  top: "res_stage_3_2_1_top"
}
layer {
  name: "res_stage_3_2_2"
  type: "Convolution"
  bottom: "res_stage_3_2_1_top"
  top: "res_stage_3_2_2"
  convolution_param {
    num_output: 256
    pad: 1
    kernel_size: 3
    stride: 1
    weight_filler {
      type: "msra"
    }
    bias_term: false
  }
}
layer {
  name: "bn_stage_3_2_2"
  type: "BatchNorm"
  bottom: "res_stage_3_2_2"
  top: "res_stage_3_2_2"
  batch_norm_param {
      use_global_stats: false
  }
}
layer {
  name: "scale_stage_3_2_2"  
  type: "Scale"
  bottom: "res_stage_3_2_2"
  top: "res_stage_3_2_2_top"
  scale_param {
	bias_term: true
  }
}
 layer {
  name: "res_stage_3_2_2_relu"
  type: "ReLU"
  bottom: "res_stage_3_2_2_top"
  top: "res_stage_3_2_2_top"
}
layer {
  name: "res_stage_3_2_3"
  type: "Convolution"
  bottom: "res_stage_3_2_2_top"
  top: "res_stage_3_2_3"
  convolution_param {
    num_output: 1024
    pad: 0
    kernel_size: 1
    stride: 1
    weight_filler {
      type: "msra"
    }
    bias_term: false
  }
}
layer {
  name: "bn_stage_3_2_3"
  type: "BatchNorm"
  bottom: "res_stage_3_2_3"
  top: "res_stage_3_2_3"
  batch_norm_param {
      use_global_stats: false
  }
}
layer {
  name: "scale_stage_3_2_3"  
  type: "Scale"
  bottom: "res_stage_3_2_3"
  top: "res_stage_3_2_3_top"
  scale_param {
	bias_term: true
  }
}
 layer {
  name: "res_3_2"
  type: "Eltwise"
  bottom: "res_3_1"
  bottom: "res_stage_3_2_3_top"
  top: "res_3_2"
  eltwise_param {
    operation: SUM
  }
}
layer {
  name: "res_3_2_relu"
  type: "ReLU"
  bottom: "res_3_2"
  top: "res_3_2"
}
layer {
  name: "res_stage_3_3_1"
  type: "Convolution"
  bottom: "res_3_2"
  top: "res_stage_3_3_1"
  convolution_param {
    num_output: 256
    pad: 0
    kernel_size: 1
    stride: 1
    weight_filler {
      type: "msra"
    }
    bias_term: false
  }
}
layer {
  name: "bn_stage_3_3_1"
  type: "BatchNorm"
  bottom: "res_stage_3_3_1"
  top: "res_stage_3_3_1"
  batch_norm_param {
      use_global_stats: false
  }
}
layer {
  name: "scale_stage_3_3_1"  
  type: "Scale"
  bottom: "res_stage_3_3_1"
  top: "res_stage_3_3_1_top"
  scale_param {
	bias_term: true
  }
}
 layer {
  name: "res_stage_3_3_1_relu"
  type: "ReLU"
  bottom: "res_stage_3_3_1_top"
  top: "res_stage_3_3_1_top"
}
layer {
  name: "res_stage_3_3_2"
  type: "Convolution"
  bottom: "res_stage_3_3_1_top"
  top: "res_stage_3_3_2"
  convolution_param {
    num_output: 256
    pad: 1
    kernel_size: 3
    stride: 1
    weight_filler {
      type: "msra"
    }
    bias_term: false
  }
}
layer {
  name: "bn_stage_3_3_2"
  type: "BatchNorm"
  bottom: "res_stage_3_3_2"
  top: "res_stage_3_3_2"
  batch_norm_param {
      use_global_stats: false
  }
}
layer {
  name: "scale_stage_3_3_2"  
  type: "Scale"
  bottom: "res_stage_3_3_2"
  top: "res_stage_3_3_2_top"
  scale_param {
	bias_term: true
  }
}
 layer {
  name: "res_stage_3_3_2_relu"
  type: "ReLU"
  bottom: "res_stage_3_3_2_top"
  top: "res_stage_3_3_2_top"
}
layer {
  name: "res_stage_3_3_3"
  type: "Convolution"
  bottom: "res_stage_3_3_2_top"
  top: "res_stage_3_3_3"
  convolution_param {
    num_output: 1024
    pad: 0
    kernel_size: 1
    stride: 1
    weight_filler {
      type: "msra"
    }
    bias_term: false
  }
}
layer {
  name: "bn_stage_3_3_3"
  type: "BatchNorm"
  bottom: "res_stage_3_3_3"
  top: "res_stage_3_3_3"
  batch_norm_param {
      use_global_stats: false
  }
}
layer {
  name: "scale_stage_3_3_3"  
  type: "Scale"
  bottom: "res_stage_3_3_3"
  top: "res_stage_3_3_3_top"
  scale_param {
	bias_term: true
  }
}
 layer {
  name: "res_3_3"
  type: "Eltwise"
  bottom: "res_3_2"
  bottom: "res_stage_3_3_3_top"
  top: "res_3_3"
  eltwise_param {
    operation: SUM
  }
}
layer {
  name: "res_3_3_relu"
  type: "ReLU"
  bottom: "res_3_3"
  top: "res_3_3"
}
layer {
  name: "res_stage_3_4_1"
  type: "Convolution"
  bottom: "res_3_3"
  top: "res_stage_3_4_1"
  convolution_param {
    num_output: 256
    pad: 0
    kernel_size: 1
    stride: 1
    weight_filler {
      type: "msra"
    }
    bias_term: false
  }
}
layer {
  name: "bn_stage_3_4_1"
  type: "BatchNorm"
  bottom: "res_stage_3_4_1"
  top: "res_stage_3_4_1"
  batch_norm_param {
      use_global_stats: false
  }
}
layer {
  name: "scale_stage_3_4_1"  
  type: "Scale"
  bottom: "res_stage_3_4_1"
  top: "res_stage_3_4_1_top"
  scale_param {
	bias_term: true
  }
}
 layer {
  name: "res_stage_3_4_1_relu"
  type: "ReLU"
  bottom: "res_stage_3_4_1_top"
  top: "res_stage_3_4_1_top"
}
layer {
  name: "res_stage_3_4_2"
  type: "Convolution"
  bottom: "res_stage_3_4_1_top"
  top: "res_stage_3_4_2"
  convolution_param {
    num_output: 256
    pad: 1
    kernel_size: 3
    stride: 1
    weight_filler {
      type: "msra"
    }
    bias_term: false
  }
}
layer {
  name: "bn_stage_3_4_2"
  type: "BatchNorm"
  bottom: "res_stage_3_4_2"
  top: "res_stage_3_4_2"
  batch_norm_param {
      use_global_stats: false
  }
}
layer {
  name: "scale_stage_3_4_2"  
  type: "Scale"
  bottom: "res_stage_3_4_2"
  top: "res_stage_3_4_2_top"
  scale_param {
	bias_term: true
  }
}
 layer {
  name: "res_stage_3_4_2_relu"
  type: "ReLU"
  bottom: "res_stage_3_4_2_top"
  top: "res_stage_3_4_2_top"
}
layer {
  name: "res_stage_3_4_3"
  type: "Convolution"
  bottom: "res_stage_3_4_2_top"
  top: "res_stage_3_4_3"
  convolution_param {
    num_output: 1024
    pad: 0
    kernel_size: 1
    stride: 1
    weight_filler {
      type: "msra"
    }
    bias_term: false
  }
}
layer {
  name: "bn_stage_3_4_3"
  type: "BatchNorm"
  bottom: "res_stage_3_4_3"
  top: "res_stage_3_4_3"
  batch_norm_param {
      use_global_stats: false
  }
}
layer {
  name: "scale_stage_3_4_3"  
  type: "Scale"
  bottom: "res_stage_3_4_3"
  top: "res_stage_3_4_3_top"
  scale_param {
	bias_term: true
  }
}
 layer {
  name: "res_3_4"
  type: "Eltwise"
  bottom: "res_3_3"
  bottom: "res_stage_3_4_3_top"
  top: "res_3_4"
  eltwise_param {
    operation: SUM
  }
}
layer {
  name: "res_3_4_relu"
  type: "ReLU"
  bottom: "res_3_4"
  top: "res_3_4"
}
layer {
  name: "res_stage_3_5_1"
  type: "Convolution"
  bottom: "res_3_4"
  top: "res_stage_3_5_1"
  convolution_param {
    num_output: 256
    pad: 0
    kernel_size: 1
    stride: 1
    weight_filler {
      type: "msra"
    }
    bias_term: false
  }
}
layer {
  name: "bn_stage_3_5_1"
  type: "BatchNorm"
  bottom: "res_stage_3_5_1"
  top: "res_stage_3_5_1"
  batch_norm_param {
      use_global_stats: false
  }
}
layer {
  name: "scale_stage_3_5_1"  
  type: "Scale"
  bottom: "res_stage_3_5_1"
  top: "res_stage_3_5_1_top"
  scale_param {
	bias_term: true
  }
}
 layer {
  name: "res_stage_3_5_1_relu"
  type: "ReLU"
  bottom: "res_stage_3_5_1_top"
  top: "res_stage_3_5_1_top"
}
layer {
  name: "res_stage_3_5_2"
  type: "Convolution"
  bottom: "res_stage_3_5_1_top"
  top: "res_stage_3_5_2"
  convolution_param {
    num_output: 256
    pad: 1
    kernel_size: 3
    stride: 1
    weight_filler {
      type: "msra"
    }
    bias_term: false
  }
}
layer {
  name: "bn_stage_3_5_2"
  type: "BatchNorm"
  bottom: "res_stage_3_5_2"
  top: "res_stage_3_5_2"
  batch_norm_param {
      use_global_stats: false
  }
}
layer {
  name: "scale_stage_3_5_2"  
  type: "Scale"
  bottom: "res_stage_3_5_2"
  top: "res_stage_3_5_2_top"
  scale_param {
	bias_term: true
  }
}
 layer {
  name: "res_stage_3_5_2_relu"
  type: "ReLU"
  bottom: "res_stage_3_5_2_top"
  top: "res_stage_3_5_2_top"
}
layer {
  name: "res_stage_3_5_3"
  type: "Convolution"
  bottom: "res_stage_3_5_2_top"
  top: "res_stage_3_5_3"
  convolution_param {
    num_output: 1024
    pad: 0
    kernel_size: 1
    stride: 1
    weight_filler {
      type: "msra"
    }
    bias_term: false
  }
}
layer {
  name: "bn_stage_3_5_3"
  type: "BatchNorm"
  bottom: "res_stage_3_5_3"
  top: "res_stage_3_5_3"
  batch_norm_param {
      use_global_stats: false
  }
}
layer {
  name: "scale_stage_3_5_3"  
  type: "Scale"
  bottom: "res_stage_3_5_3"
  top: "res_stage_3_5_3_top"
  scale_param {
	bias_term: true
  }
}
 layer {
  name: "res_3_5"
  type: "Eltwise"
  bottom: "res_3_4"
  bottom: "res_stage_3_5_3_top"
  top: "res_3_5"
  eltwise_param {
    operation: SUM
  }
}
layer {
  name: "res_3_5_relu"
  type: "ReLU"
  bottom: "res_3_5"
  top: "res_3_5"
}
layer {
  name: "res_stage_3_6_1"
  type: "Convolution"
  bottom: "res_3_5"
  top: "res_stage_3_6_1"
  convolution_param {
    num_output: 256
    pad: 0
    kernel_size: 1
    stride: 1
    weight_filler {
      type: "msra"
    }
    bias_term: false
  }
}
layer {
  name: "bn_stage_3_6_1"
  type: "BatchNorm"
  bottom: "res_stage_3_6_1"
  top: "res_stage_3_6_1"
  batch_norm_param {
      use_global_stats: false
  }
}
layer {
  name: "scale_stage_3_6_1"  
  type: "Scale"
  bottom: "res_stage_3_6_1"
  top: "res_stage_3_6_1_top"
  scale_param {
	bias_term: true
  }
}
 layer {
  name: "res_stage_3_6_1_relu"
  type: "ReLU"
  bottom: "res_stage_3_6_1_top"
  top: "res_stage_3_6_1_top"
}
layer {
  name: "res_stage_3_6_2"
  type: "Convolution"
  bottom: "res_stage_3_6_1_top"
  top: "res_stage_3_6_2"
  convolution_param {
    num_output: 256
    pad: 1
    kernel_size: 3
    stride: 1
    weight_filler {
      type: "msra"
    }
    bias_term: false
  }
}
layer {
  name: "bn_stage_3_6_2"
  type: "BatchNorm"
  bottom: "res_stage_3_6_2"
  top: "res_stage_3_6_2"
  batch_norm_param {
      use_global_stats: false
  }
}
layer {
  name: "scale_stage_3_6_2"  
  type: "Scale"
  bottom: "res_stage_3_6_2"
  top: "res_stage_3_6_2_top"
  scale_param {
	bias_term: true
  }
}
 layer {
  name: "res_stage_3_6_2_relu"
  type: "ReLU"
  bottom: "res_stage_3_6_2_top"
  top: "res_stage_3_6_2_top"
}
layer {
  name: "res_stage_3_6_3"
  type: "Convolution"
  bottom: "res_stage_3_6_2_top"
  top: "res_stage_3_6_3"
  convolution_param {
    num_output: 1024
    pad: 0
    kernel_size: 1
    stride: 1
    weight_filler {
      type: "msra"
    }
    bias_term: false
  }
}
layer {
  name: "bn_stage_3_6_3"
  type: "BatchNorm"
  bottom: "res_stage_3_6_3"
  top: "res_stage_3_6_3"
  batch_norm_param {
      use_global_stats: false
  }
}
layer {
  name: "scale_stage_3_6_3"  
  type: "Scale"
  bottom: "res_stage_3_6_3"
  top: "res_stage_3_6_3_top"
  scale_param {
	bias_term: true
  }
}
 layer {
  name: "res_3_6"
  type: "Eltwise"
  bottom: "res_3_5"
  bottom: "res_stage_3_6_3_top"
  top: "res_3_6"
  eltwise_param {
    operation: SUM
  }
}
layer {
  name: "res_3_6_relu"
  type: "ReLU"
  bottom: "res_3_6"
  top: "res_3_6"
}
layer {
  name: "res_stage_3_7_1"
  type: "Convolution"
  bottom: "res_3_6"
  top: "res_stage_3_7_1"
  convolution_param {
    num_output: 256
    pad: 0
    kernel_size: 1
    stride: 1
    weight_filler {
      type: "msra"
    }
    bias_term: false
  }
}
layer {
  name: "bn_stage_3_7_1"
  type: "BatchNorm"
  bottom: "res_stage_3_7_1"
  top: "res_stage_3_7_1"
  batch_norm_param {
      use_global_stats: false
  }
}
layer {
  name: "scale_stage_3_7_1"  
  type: "Scale"
  bottom: "res_stage_3_7_1"
  top: "res_stage_3_7_1_top"
  scale_param {
	bias_term: true
  }
}
 layer {
  name: "res_stage_3_7_1_relu"
  type: "ReLU"
  bottom: "res_stage_3_7_1_top"
  top: "res_stage_3_7_1_top"
}
layer {
  name: "res_stage_3_7_2"
  type: "Convolution"
  bottom: "res_stage_3_7_1_top"
  top: "res_stage_3_7_2"
  convolution_param {
    num_output: 256
    pad: 1
    kernel_size: 3
    stride: 1
    weight_filler {
      type: "msra"
    }
    bias_term: false
  }
}
layer {
  name: "bn_stage_3_7_2"
  type: "BatchNorm"
  bottom: "res_stage_3_7_2"
  top: "res_stage_3_7_2"
  batch_norm_param {
      use_global_stats: false
  }
}
layer {
  name: "scale_stage_3_7_2"  
  type: "Scale"
  bottom: "res_stage_3_7_2"
  top: "res_stage_3_7_2_top"
  scale_param {
	bias_term: true
  }
}
 layer {
  name: "res_stage_3_7_2_relu"
  type: "ReLU"
  bottom: "res_stage_3_7_2_top"
  top: "res_stage_3_7_2_top"
}
layer {
  name: "res_stage_3_7_3"
  type: "Convolution"
  bottom: "res_stage_3_7_2_top"
  top: "res_stage_3_7_3"
  convolution_param {
    num_output: 1024
    pad: 0
    kernel_size: 1
    stride: 1
    weight_filler {
      type: "msra"
    }
    bias_term: false
  }
}
layer {
  name: "bn_stage_3_7_3"
  type: "BatchNorm"
  bottom: "res_stage_3_7_3"
  top: "res_stage_3_7_3"
  batch_norm_param {
      use_global_stats: false
  }
}
layer {
  name: "scale_stage_3_7_3"  
  type: "Scale"
  bottom: "res_stage_3_7_3"
  top: "res_stage_3_7_3_top"
  scale_param {
	bias_term: true
  }
}
 layer {
  name: "res_3_7"
  type: "Eltwise"
  bottom: "res_3_6"
  bottom: "res_stage_3_7_3_top"
  top: "res_3_7"
  eltwise_param {
    operation: SUM
  }
}
layer {
  name: "res_3_7_relu"
  type: "ReLU"
  bottom: "res_3_7"
  top: "res_3_7"
}
layer {
  name: "res_stage_3_8_1"
  type: "Convolution"
  bottom: "res_3_7"
  top: "res_stage_3_8_1"
  convolution_param {
    num_output: 256
    pad: 0
    kernel_size: 1
    stride: 1
    weight_filler {
      type: "msra"
    }
    bias_term: false
  }
}
layer {
  name: "bn_stage_3_8_1"
  type: "BatchNorm"
  bottom: "res_stage_3_8_1"
  top: "res_stage_3_8_1"
  batch_norm_param {
      use_global_stats: false
  }
}
layer {
  name: "scale_stage_3_8_1"  
  type: "Scale"
  bottom: "res_stage_3_8_1"
  top: "res_stage_3_8_1_top"
  scale_param {
	bias_term: true
  }
}
 layer {
  name: "res_stage_3_8_1_relu"
  type: "ReLU"
  bottom: "res_stage_3_8_1_top"
  top: "res_stage_3_8_1_top"
}
layer {
  name: "res_stage_3_8_2"
  type: "Convolution"
  bottom: "res_stage_3_8_1_top"
  top: "res_stage_3_8_2"
  convolution_param {
    num_output: 256
    pad: 1
    kernel_size: 3
    stride: 1
    weight_filler {
      type: "msra"
    }
    bias_term: false
  }
}
layer {
  name: "bn_stage_3_8_2"
  type: "BatchNorm"
  bottom: "res_stage_3_8_2"
  top: "res_stage_3_8_2"
  batch_norm_param {
      use_global_stats: false
  }
}
layer {
  name: "scale_stage_3_8_2"  
  type: "Scale"
  bottom: "res_stage_3_8_2"
  top: "res_stage_3_8_2_top"
  scale_param {
	bias_term: true
  }
}
 layer {
  name: "res_stage_3_8_2_relu"
  type: "ReLU"
  bottom: "res_stage_3_8_2_top"
  top: "res_stage_3_8_2_top"
}
layer {
  name: "res_stage_3_8_3"
  type: "Convolution"
  bottom: "res_stage_3_8_2_top"
  top: "res_stage_3_8_3"
  convolution_param {
    num_output: 1024
    pad: 0
    kernel_size: 1
    stride: 1
    weight_filler {
      type: "msra"
    }
    bias_term: false
  }
}
layer {
  name: "bn_stage_3_8_3"
  type: "BatchNorm"
  bottom: "res_stage_3_8_3"
  top: "res_stage_3_8_3"
  batch_norm_param {
      use_global_stats: false
  }
}
layer {
  name: "scale_stage_3_8_3"  
  type: "Scale"
  bottom: "res_stage_3_8_3"
  top: "res_stage_3_8_3_top"
  scale_param {
	bias_term: true
  }
}
 layer {
  name: "res_3_8"
  type: "Eltwise"
  bottom: "res_3_7"
  bottom: "res_stage_3_8_3_top"
  top: "res_3_8"
  eltwise_param {
    operation: SUM
  }
}
layer {
  name: "res_3_8_relu"
  type: "ReLU"
  bottom: "res_3_8"
  top: "res_3_8"
}
layer {
  name: "res_stage_3_9_1"
  type: "Convolution"
  bottom: "res_3_8"
  top: "res_stage_3_9_1"
  convolution_param {
    num_output: 256
    pad: 0
    kernel_size: 1
    stride: 1
    weight_filler {
      type: "msra"
    }
    bias_term: false
  }
}
layer {
  name: "bn_stage_3_9_1"
  type: "BatchNorm"
  bottom: "res_stage_3_9_1"
  top: "res_stage_3_9_1"
  batch_norm_param {
      use_global_stats: false
  }
}
layer {
  name: "scale_stage_3_9_1"  
  type: "Scale"
  bottom: "res_stage_3_9_1"
  top: "res_stage_3_9_1_top"
  scale_param {
	bias_term: true
  }
}
 layer {
  name: "res_stage_3_9_1_relu"
  type: "ReLU"
  bottom: "res_stage_3_9_1_top"
  top: "res_stage_3_9_1_top"
}
layer {
  name: "res_stage_3_9_2"
  type: "Convolution"
  bottom: "res_stage_3_9_1_top"
  top: "res_stage_3_9_2"
  convolution_param {
    num_output: 256
    pad: 1
    kernel_size: 3
    stride: 1
    weight_filler {
      type: "msra"
    }
    bias_term: false
  }
}
layer {
  name: "bn_stage_3_9_2"
  type: "BatchNorm"
  bottom: "res_stage_3_9_2"
  top: "res_stage_3_9_2"
  batch_norm_param {
      use_global_stats: false
  }
}
layer {
  name: "scale_stage_3_9_2"  
  type: "Scale"
  bottom: "res_stage_3_9_2"
  top: "res_stage_3_9_2_top"
  scale_param {
	bias_term: true
  }
}
 layer {
  name: "res_stage_3_9_2_relu"
  type: "ReLU"
  bottom: "res_stage_3_9_2_top"
  top: "res_stage_3_9_2_top"
}
layer {
  name: "res_stage_3_9_3"
  type: "Convolution"
  bottom: "res_stage_3_9_2_top"
  top: "res_stage_3_9_3"
  convolution_param {
    num_output: 1024
    pad: 0
    kernel_size: 1
    stride: 1
    weight_filler {
      type: "msra"
    }
    bias_term: false
  }
}
layer {
  name: "bn_stage_3_9_3"
  type: "BatchNorm"
  bottom: "res_stage_3_9_3"
  top: "res_stage_3_9_3"
  batch_norm_param {
      use_global_stats: false
  }
}
layer {
  name: "scale_stage_3_9_3"  
  type: "Scale"
  bottom: "res_stage_3_9_3"
  top: "res_stage_3_9_3_top"
  scale_param {
	bias_term: true
  }
}
 layer {
  name: "res_3_9"
  type: "Eltwise"
  bottom: "res_3_8"
  bottom: "res_stage_3_9_3_top"
  top: "res_3_9"
  eltwise_param {
    operation: SUM
  }
}
layer {
  name: "res_3_9_relu"
  type: "ReLU"
  bottom: "res_3_9"
  top: "res_3_9"
}
layer {
  name: "res_stage_3_10_1"
  type: "Convolution"
  bottom: "res_3_9"
  top: "res_stage_3_10_1"
  convolution_param {
    num_output: 256
    pad: 0
    kernel_size: 1
    stride: 1
    weight_filler {
      type: "msra"
    }
    bias_term: false
  }
}
layer {
  name: "bn_stage_3_10_1"
  type: "BatchNorm"
  bottom: "res_stage_3_10_1"
  top: "res_stage_3_10_1"
  batch_norm_param {
      use_global_stats: false
  }
}
layer {
  name: "scale_stage_3_10_1"  
  type: "Scale"
  bottom: "res_stage_3_10_1"
  top: "res_stage_3_10_1_top"
  scale_param {
	bias_term: true
  }
}
 layer {
  name: "res_stage_3_10_1_relu"
  type: "ReLU"
  bottom: "res_stage_3_10_1_top"
  top: "res_stage_3_10_1_top"
}
layer {
  name: "res_stage_3_10_2"
  type: "Convolution"
  bottom: "res_stage_3_10_1_top"
  top: "res_stage_3_10_2"
  convolution_param {
    num_output: 256
    pad: 1
    kernel_size: 3
    stride: 1
    weight_filler {
      type: "msra"
    }
    bias_term: false
  }
}
layer {
  name: "bn_stage_3_10_2"
  type: "BatchNorm"
  bottom: "res_stage_3_10_2"
  top: "res_stage_3_10_2"
  batch_norm_param {
      use_global_stats: false
  }
}
layer {
  name: "scale_stage_3_10_2"  
  type: "Scale"
  bottom: "res_stage_3_10_2"
  top: "res_stage_3_10_2_top"
  scale_param {
	bias_term: true
  }
}
 layer {
  name: "res_stage_3_10_2_relu"
  type: "ReLU"
  bottom: "res_stage_3_10_2_top"
  top: "res_stage_3_10_2_top"
}
layer {
  name: "res_stage_3_10_3"
  type: "Convolution"
  bottom: "res_stage_3_10_2_top"
  top: "res_stage_3_10_3"
  convolution_param {
    num_output: 1024
    pad: 0
    kernel_size: 1
    stride: 1
    weight_filler {
      type: "msra"
    }
    bias_term: false
  }
}
layer {
  name: "bn_stage_3_10_3"
  type: "BatchNorm"
  bottom: "res_stage_3_10_3"
  top: "res_stage_3_10_3"
  batch_norm_param {
      use_global_stats: false
  }
}
layer {
  name: "scale_stage_3_10_3"  
  type: "Scale"
  bottom: "res_stage_3_10_3"
  top: "res_stage_3_10_3_top"
  scale_param {
	bias_term: true
  }
}
 layer {
  name: "res_3_10"
  type: "Eltwise"
  bottom: "res_3_9"
  bottom: "res_stage_3_10_3_top"
  top: "res_3_10"
  eltwise_param {
    operation: SUM
  }
}
layer {
  name: "res_3_10_relu"
  type: "ReLU"
  bottom: "res_3_10"
  top: "res_3_10"
}
layer {
  name: "res_stage_3_11_1"
  type: "Convolution"
  bottom: "res_3_10"
  top: "res_stage_3_11_1"
  convolution_param {
    num_output: 256
    pad: 0
    kernel_size: 1
    stride: 1
    weight_filler {
      type: "msra"
    }
    bias_term: false
  }
}
layer {
  name: "bn_stage_3_11_1"
  type: "BatchNorm"
  bottom: "res_stage_3_11_1"
  top: "res_stage_3_11_1"
  batch_norm_param {
      use_global_stats: false
  }
}
layer {
  name: "scale_stage_3_11_1"  
  type: "Scale"
  bottom: "res_stage_3_11_1"
  top: "res_stage_3_11_1_top"
  scale_param {
	bias_term: true
  }
}
 layer {
  name: "res_stage_3_11_1_relu"
  type: "ReLU"
  bottom: "res_stage_3_11_1_top"
  top: "res_stage_3_11_1_top"
}
layer {
  name: "res_stage_3_11_2"
  type: "Convolution"
  bottom: "res_stage_3_11_1_top"
  top: "res_stage_3_11_2"
  convolution_param {
    num_output: 256
    pad: 1
    kernel_size: 3
    stride: 1
    weight_filler {
      type: "msra"
    }
    bias_term: false
  }
}
layer {
  name: "bn_stage_3_11_2"
  type: "BatchNorm"
  bottom: "res_stage_3_11_2"
  top: "res_stage_3_11_2"
  batch_norm_param {
      use_global_stats: false
  }
}
layer {
  name: "scale_stage_3_11_2"  
  type: "Scale"
  bottom: "res_stage_3_11_2"
  top: "res_stage_3_11_2_top"
  scale_param {
	bias_term: true
  }
}
 layer {
  name: "res_stage_3_11_2_relu"
  type: "ReLU"
  bottom: "res_stage_3_11_2_top"
  top: "res_stage_3_11_2_top"
}
layer {
  name: "res_stage_3_11_3"
  type: "Convolution"
  bottom: "res_stage_3_11_2_top"
  top: "res_stage_3_11_3"
  convolution_param {
    num_output: 1024
    pad: 0
    kernel_size: 1
    stride: 1
    weight_filler {
      type: "msra"
    }
    bias_term: false
  }
}
layer {
  name: "bn_stage_3_11_3"
  type: "BatchNorm"
  bottom: "res_stage_3_11_3"
  top: "res_stage_3_11_3"
  batch_norm_param {
      use_global_stats: false
  }
}
layer {
  name: "scale_stage_3_11_3"  
  type: "Scale"
  bottom: "res_stage_3_11_3"
  top: "res_stage_3_11_3_top"
  scale_param {
	bias_term: true
  }
}
 layer {
  name: "res_3_11"
  type: "Eltwise"
  bottom: "res_3_10"
  bottom: "res_stage_3_11_3_top"
  top: "res_3_11"
  eltwise_param {
    operation: SUM
  }
}
layer {
  name: "res_3_11_relu"
  type: "ReLU"
  bottom: "res_3_11"
  top: "res_3_11"
}
layer {
  name: "res_stage_3_12_1"
  type: "Convolution"
  bottom: "res_3_11"
  top: "res_stage_3_12_1"
  convolution_param {
    num_output: 256
    pad: 0
    kernel_size: 1
    stride: 1
    weight_filler {
      type: "msra"
    }
    bias_term: false
  }
}
layer {
  name: "bn_stage_3_12_1"
  type: "BatchNorm"
  bottom: "res_stage_3_12_1"
  top: "res_stage_3_12_1"
  batch_norm_param {
      use_global_stats: false
  }
}
layer {
  name: "scale_stage_3_12_1"  
  type: "Scale"
  bottom: "res_stage_3_12_1"
  top: "res_stage_3_12_1_top"
  scale_param {
	bias_term: true
  }
}
 layer {
  name: "res_stage_3_12_1_relu"
  type: "ReLU"
  bottom: "res_stage_3_12_1_top"
  top: "res_stage_3_12_1_top"
}
layer {
  name: "res_stage_3_12_2"
  type: "Convolution"
  bottom: "res_stage_3_12_1_top"
  top: "res_stage_3_12_2"
  convolution_param {
    num_output: 256
    pad: 1
    kernel_size: 3
    stride: 1
    weight_filler {
      type: "msra"
    }
    bias_term: false
  }
}
layer {
  name: "bn_stage_3_12_2"
  type: "BatchNorm"
  bottom: "res_stage_3_12_2"
  top: "res_stage_3_12_2"
  batch_norm_param {
      use_global_stats: false
  }
}
layer {
  name: "scale_stage_3_12_2"  
  type: "Scale"
  bottom: "res_stage_3_12_2"
  top: "res_stage_3_12_2_top"
  scale_param {
	bias_term: true
  }
}
 layer {
  name: "res_stage_3_12_2_relu"
  type: "ReLU"
  bottom: "res_stage_3_12_2_top"
  top: "res_stage_3_12_2_top"
}
layer {
  name: "res_stage_3_12_3"
  type: "Convolution"
  bottom: "res_stage_3_12_2_top"
  top: "res_stage_3_12_3"
  convolution_param {
    num_output: 1024
    pad: 0
    kernel_size: 1
    stride: 1
    weight_filler {
      type: "msra"
    }
    bias_term: false
  }
}
layer {
  name: "bn_stage_3_12_3"
  type: "BatchNorm"
  bottom: "res_stage_3_12_3"
  top: "res_stage_3_12_3"
  batch_norm_param {
      use_global_stats: false
  }
}
layer {
  name: "scale_stage_3_12_3"  
  type: "Scale"
  bottom: "res_stage_3_12_3"
  top: "res_stage_3_12_3_top"
  scale_param {
	bias_term: true
  }
}
 layer {
  name: "res_3_12"
  type: "Eltwise"
  bottom: "res_3_11"
  bottom: "res_stage_3_12_3_top"
  top: "res_3_12"
  eltwise_param {
    operation: SUM
  }
}
layer {
  name: "res_3_12_relu"
  type: "ReLU"
  bottom: "res_3_12"
  top: "res_3_12"
}
layer {
  name: "res_stage_3_13_1"
  type: "Convolution"
  bottom: "res_3_12"
  top: "res_stage_3_13_1"
  convolution_param {
    num_output: 256
    pad: 0
    kernel_size: 1
    stride: 1
    weight_filler {
      type: "msra"
    }
    bias_term: false
  }
}
layer {
  name: "bn_stage_3_13_1"
  type: "BatchNorm"
  bottom: "res_stage_3_13_1"
  top: "res_stage_3_13_1"
  batch_norm_param {
      use_global_stats: false
  }
}
layer {
  name: "scale_stage_3_13_1"  
  type: "Scale"
  bottom: "res_stage_3_13_1"
  top: "res_stage_3_13_1_top"
  scale_param {
	bias_term: true
  }
}
 layer {
  name: "res_stage_3_13_1_relu"
  type: "ReLU"
  bottom: "res_stage_3_13_1_top"
  top: "res_stage_3_13_1_top"
}
layer {
  name: "res_stage_3_13_2"
  type: "Convolution"
  bottom: "res_stage_3_13_1_top"
  top: "res_stage_3_13_2"
  convolution_param {
    num_output: 256
    pad: 1
    kernel_size: 3
    stride: 1
    weight_filler {
      type: "msra"
    }
    bias_term: false
  }
}
layer {
  name: "bn_stage_3_13_2"
  type: "BatchNorm"
  bottom: "res_stage_3_13_2"
  top: "res_stage_3_13_2"
  batch_norm_param {
      use_global_stats: false
  }
}
layer {
  name: "scale_stage_3_13_2"  
  type: "Scale"
  bottom: "res_stage_3_13_2"
  top: "res_stage_3_13_2_top"
  scale_param {
	bias_term: true
  }
}
 layer {
  name: "res_stage_3_13_2_relu"
  type: "ReLU"
  bottom: "res_stage_3_13_2_top"
  top: "res_stage_3_13_2_top"
}
layer {
  name: "res_stage_3_13_3"
  type: "Convolution"
  bottom: "res_stage_3_13_2_top"
  top: "res_stage_3_13_3"
  convolution_param {
    num_output: 1024
    pad: 0
    kernel_size: 1
    stride: 1
    weight_filler {
      type: "msra"
    }
    bias_term: false
  }
}
layer {
  name: "bn_stage_3_13_3"
  type: "BatchNorm"
  bottom: "res_stage_3_13_3"
  top: "res_stage_3_13_3"
  batch_norm_param {
      use_global_stats: false
  }
}
layer {
  name: "scale_stage_3_13_3"  
  type: "Scale"
  bottom: "res_stage_3_13_3"
  top: "res_stage_3_13_3_top"
  scale_param {
	bias_term: true
  }
}
 layer {
  name: "res_3_13"
  type: "Eltwise"
  bottom: "res_3_12"
  bottom: "res_stage_3_13_3_top"
  top: "res_3_13"
  eltwise_param {
    operation: SUM
  }
}
layer {
  name: "res_3_13_relu"
  type: "ReLU"
  bottom: "res_3_13"
  top: "res_3_13"
}
layer {
  name: "res_stage_3_14_1"
  type: "Convolution"
  bottom: "res_3_13"
  top: "res_stage_3_14_1"
  convolution_param {
    num_output: 256
    pad: 0
    kernel_size: 1
    stride: 1
    weight_filler {
      type: "msra"
    }
    bias_term: false
  }
}
layer {
  name: "bn_stage_3_14_1"
  type: "BatchNorm"
  bottom: "res_stage_3_14_1"
  top: "res_stage_3_14_1"
  batch_norm_param {
      use_global_stats: false
  }
}
layer {
  name: "scale_stage_3_14_1"  
  type: "Scale"
  bottom: "res_stage_3_14_1"
  top: "res_stage_3_14_1_top"
  scale_param {
	bias_term: true
  }
}
 layer {
  name: "res_stage_3_14_1_relu"
  type: "ReLU"
  bottom: "res_stage_3_14_1_top"
  top: "res_stage_3_14_1_top"
}
layer {
  name: "res_stage_3_14_2"
  type: "Convolution"
  bottom: "res_stage_3_14_1_top"
  top: "res_stage_3_14_2"
  convolution_param {
    num_output: 256
    pad: 1
    kernel_size: 3
    stride: 1
    weight_filler {
      type: "msra"
    }
    bias_term: false
  }
}
layer {
  name: "bn_stage_3_14_2"
  type: "BatchNorm"
  bottom: "res_stage_3_14_2"
  top: "res_stage_3_14_2"
  batch_norm_param {
      use_global_stats: false
  }
}
layer {
  name: "scale_stage_3_14_2"  
  type: "Scale"
  bottom: "res_stage_3_14_2"
  top: "res_stage_3_14_2_top"
  scale_param {
	bias_term: true
  }
}
 layer {
  name: "res_stage_3_14_2_relu"
  type: "ReLU"
  bottom: "res_stage_3_14_2_top"
  top: "res_stage_3_14_2_top"
}
layer {
  name: "res_stage_3_14_3"
  type: "Convolution"
  bottom: "res_stage_3_14_2_top"
  top: "res_stage_3_14_3"
  convolution_param {
    num_output: 1024
    pad: 0
    kernel_size: 1
    stride: 1
    weight_filler {
      type: "msra"
    }
    bias_term: false
  }
}
layer {
  name: "bn_stage_3_14_3"
  type: "BatchNorm"
  bottom: "res_stage_3_14_3"
  top: "res_stage_3_14_3"
  batch_norm_param {
      use_global_stats: false
  }
}
layer {
  name: "scale_stage_3_14_3"  
  type: "Scale"
  bottom: "res_stage_3_14_3"
  top: "res_stage_3_14_3_top"
  scale_param {
	bias_term: true
  }
}
 layer {
  name: "res_3_14"
  type: "Eltwise"
  bottom: "res_3_13"
  bottom: "res_stage_3_14_3_top"
  top: "res_3_14"
  eltwise_param {
    operation: SUM
  }
}
layer {
  name: "res_3_14_relu"
  type: "ReLU"
  bottom: "res_3_14"
  top: "res_3_14"
}
layer {
  name: "res_stage_3_15_1"
  type: "Convolution"
  bottom: "res_3_14"
  top: "res_stage_3_15_1"
  convolution_param {
    num_output: 256
    pad: 0
    kernel_size: 1
    stride: 1
    weight_filler {
      type: "msra"
    }
    bias_term: false
  }
}
layer {
  name: "bn_stage_3_15_1"
  type: "BatchNorm"
  bottom: "res_stage_3_15_1"
  top: "res_stage_3_15_1"
  batch_norm_param {
      use_global_stats: false
  }
}
layer {
  name: "scale_stage_3_15_1"  
  type: "Scale"
  bottom: "res_stage_3_15_1"
  top: "res_stage_3_15_1_top"
  scale_param {
	bias_term: true
  }
}
 layer {
  name: "res_stage_3_15_1_relu"
  type: "ReLU"
  bottom: "res_stage_3_15_1_top"
  top: "res_stage_3_15_1_top"
}
layer {
  name: "res_stage_3_15_2"
  type: "Convolution"
  bottom: "res_stage_3_15_1_top"
  top: "res_stage_3_15_2"
  convolution_param {
    num_output: 256
    pad: 1
    kernel_size: 3
    stride: 1
    weight_filler {
      type: "msra"
    }
    bias_term: false
  }
}
layer {
  name: "bn_stage_3_15_2"
  type: "BatchNorm"
  bottom: "res_stage_3_15_2"
  top: "res_stage_3_15_2"
  batch_norm_param {
      use_global_stats: false
  }
}
layer {
  name: "scale_stage_3_15_2"  
  type: "Scale"
  bottom: "res_stage_3_15_2"
  top: "res_stage_3_15_2_top"
  scale_param {
	bias_term: true
  }
}
 layer {
  name: "res_stage_3_15_2_relu"
  type: "ReLU"
  bottom: "res_stage_3_15_2_top"
  top: "res_stage_3_15_2_top"
}
layer {
  name: "res_stage_3_15_3"
  type: "Convolution"
  bottom: "res_stage_3_15_2_top"
  top: "res_stage_3_15_3"
  convolution_param {
    num_output: 1024
    pad: 0
    kernel_size: 1
    stride: 1
    weight_filler {
      type: "msra"
    }
    bias_term: false
  }
}
layer {
  name: "bn_stage_3_15_3"
  type: "BatchNorm"
  bottom: "res_stage_3_15_3"
  top: "res_stage_3_15_3"
  batch_norm_param {
      use_global_stats: false
  }
}
layer {
  name: "scale_stage_3_15_3"  
  type: "Scale"
  bottom: "res_stage_3_15_3"
  top: "res_stage_3_15_3_top"
  scale_param {
	bias_term: true
  }
}
 layer {
  name: "res_3_15"
  type: "Eltwise"
  bottom: "res_3_14"
  bottom: "res_stage_3_15_3_top"
  top: "res_3_15"
  eltwise_param {
    operation: SUM
  }
}
layer {
  name: "res_3_15_relu"
  type: "ReLU"
  bottom: "res_3_15"
  top: "res_3_15"
}
layer {
  name: "res_stage_3_16_1"
  type: "Convolution"
  bottom: "res_3_15"
  top: "res_stage_3_16_1"
  convolution_param {
    num_output: 256
    pad: 0
    kernel_size: 1
    stride: 1
    weight_filler {
      type: "msra"
    }
    bias_term: false
  }
}
layer {
  name: "bn_stage_3_16_1"
  type: "BatchNorm"
  bottom: "res_stage_3_16_1"
  top: "res_stage_3_16_1"
  batch_norm_param {
      use_global_stats: false
  }
}
layer {
  name: "scale_stage_3_16_1"  
  type: "Scale"
  bottom: "res_stage_3_16_1"
  top: "res_stage_3_16_1_top"
  scale_param {
	bias_term: true
  }
}
 layer {
  name: "res_stage_3_16_1_relu"
  type: "ReLU"
  bottom: "res_stage_3_16_1_top"
  top: "res_stage_3_16_1_top"
}
layer {
  name: "res_stage_3_16_2"
  type: "Convolution"
  bottom: "res_stage_3_16_1_top"
  top: "res_stage_3_16_2"
  convolution_param {
    num_output: 256
    pad: 1
    kernel_size: 3
    stride: 1
    weight_filler {
      type: "msra"
    }
    bias_term: false
  }
}
layer {
  name: "bn_stage_3_16_2"
  type: "BatchNorm"
  bottom: "res_stage_3_16_2"
  top: "res_stage_3_16_2"
  batch_norm_param {
      use_global_stats: false
  }
}
layer {
  name: "scale_stage_3_16_2"  
  type: "Scale"
  bottom: "res_stage_3_16_2"
  top: "res_stage_3_16_2_top"
  scale_param {
	bias_term: true
  }
}
 layer {
  name: "res_stage_3_16_2_relu"
  type: "ReLU"
  bottom: "res_stage_3_16_2_top"
  top: "res_stage_3_16_2_top"
}
layer {
  name: "res_stage_3_16_3"
  type: "Convolution"
  bottom: "res_stage_3_16_2_top"
  top: "res_stage_3_16_3"
  convolution_param {
    num_output: 1024
    pad: 0
    kernel_size: 1
    stride: 1
    weight_filler {
      type: "msra"
    }
    bias_term: false
  }
}
layer {
  name: "bn_stage_3_16_3"
  type: "BatchNorm"
  bottom: "res_stage_3_16_3"
  top: "res_stage_3_16_3"
  batch_norm_param {
      use_global_stats: false
  }
}
layer {
  name: "scale_stage_3_16_3"  
  type: "Scale"
  bottom: "res_stage_3_16_3"
  top: "res_stage_3_16_3_top"
  scale_param {
	bias_term: true
  }
}
 layer {
  name: "res_3_16"
  type: "Eltwise"
  bottom: "res_3_15"
  bottom: "res_stage_3_16_3_top"
  top: "res_3_16"
  eltwise_param {
    operation: SUM
  }
}
layer {
  name: "res_3_16_relu"
  type: "ReLU"
  bottom: "res_3_16"
  top: "res_3_16"
}
layer {
  name: "res_stage_3_17_1"
  type: "Convolution"
  bottom: "res_3_16"
  top: "res_stage_3_17_1"
  convolution_param {
    num_output: 256
    pad: 0
    kernel_size: 1
    stride: 1
    weight_filler {
      type: "msra"
    }
    bias_term: false
  }
}
layer {
  name: "bn_stage_3_17_1"
  type: "BatchNorm"
  bottom: "res_stage_3_17_1"
  top: "res_stage_3_17_1"
  batch_norm_param {
      use_global_stats: false
  }
}
layer {
  name: "scale_stage_3_17_1"  
  type: "Scale"
  bottom: "res_stage_3_17_1"
  top: "res_stage_3_17_1_top"
  scale_param {
	bias_term: true
  }
}
 layer {
  name: "res_stage_3_17_1_relu"
  type: "ReLU"
  bottom: "res_stage_3_17_1_top"
  top: "res_stage_3_17_1_top"
}
layer {
  name: "res_stage_3_17_2"
  type: "Convolution"
  bottom: "res_stage_3_17_1_top"
  top: "res_stage_3_17_2"
  convolution_param {
    num_output: 256
    pad: 1
    kernel_size: 3
    stride: 1
    weight_filler {
      type: "msra"
    }
    bias_term: false
  }
}
layer {
  name: "bn_stage_3_17_2"
  type: "BatchNorm"
  bottom: "res_stage_3_17_2"
  top: "res_stage_3_17_2"
  batch_norm_param {
      use_global_stats: false
  }
}
layer {
  name: "scale_stage_3_17_2"  
  type: "Scale"
  bottom: "res_stage_3_17_2"
  top: "res_stage_3_17_2_top"
  scale_param {
	bias_term: true
  }
}
 layer {
  name: "res_stage_3_17_2_relu"
  type: "ReLU"
  bottom: "res_stage_3_17_2_top"
  top: "res_stage_3_17_2_top"
}
layer {
  name: "res_stage_3_17_3"
  type: "Convolution"
  bottom: "res_stage_3_17_2_top"
  top: "res_stage_3_17_3"
  convolution_param {
    num_output: 1024
    pad: 0
    kernel_size: 1
    stride: 1
    weight_filler {
      type: "msra"
    }
    bias_term: false
  }
}
layer {
  name: "bn_stage_3_17_3"
  type: "BatchNorm"
  bottom: "res_stage_3_17_3"
  top: "res_stage_3_17_3"
  batch_norm_param {
      use_global_stats: false
  }
}
layer {
  name: "scale_stage_3_17_3"  
  type: "Scale"
  bottom: "res_stage_3_17_3"
  top: "res_stage_3_17_3_top"
  scale_param {
	bias_term: true
  }
}
 layer {
  name: "res_3_17"
  type: "Eltwise"
  bottom: "res_3_16"
  bottom: "res_stage_3_17_3_top"
  top: "res_3_17"
  eltwise_param {
    operation: SUM
  }
}
layer {
  name: "res_3_17_relu"
  type: "ReLU"
  bottom: "res_3_17"
  top: "res_3_17"
}
layer {
  name: "res_stage_3_18_1"
  type: "Convolution"
  bottom: "res_3_17"
  top: "res_stage_3_18_1"
  convolution_param {
    num_output: 256
    pad: 0
    kernel_size: 1
    stride: 1
    weight_filler {
      type: "msra"
    }
    bias_term: false
  }
}
layer {
  name: "bn_stage_3_18_1"
  type: "BatchNorm"
  bottom: "res_stage_3_18_1"
  top: "res_stage_3_18_1"
  batch_norm_param {
      use_global_stats: false
  }
}
layer {
  name: "scale_stage_3_18_1"  
  type: "Scale"
  bottom: "res_stage_3_18_1"
  top: "res_stage_3_18_1_top"
  scale_param {
	bias_term: true
  }
}
 layer {
  name: "res_stage_3_18_1_relu"
  type: "ReLU"
  bottom: "res_stage_3_18_1_top"
  top: "res_stage_3_18_1_top"
}
layer {
  name: "res_stage_3_18_2"
  type: "Convolution"
  bottom: "res_stage_3_18_1_top"
  top: "res_stage_3_18_2"
  convolution_param {
    num_output: 256
    pad: 1
    kernel_size: 3
    stride: 1
    weight_filler {
      type: "msra"
    }
    bias_term: false
  }
}
layer {
  name: "bn_stage_3_18_2"
  type: "BatchNorm"
  bottom: "res_stage_3_18_2"
  top: "res_stage_3_18_2"
  batch_norm_param {
      use_global_stats: false
  }
}
layer {
  name: "scale_stage_3_18_2"  
  type: "Scale"
  bottom: "res_stage_3_18_2"
  top: "res_stage_3_18_2_top"
  scale_param {
	bias_term: true
  }
}
 layer {
  name: "res_stage_3_18_2_relu"
  type: "ReLU"
  bottom: "res_stage_3_18_2_top"
  top: "res_stage_3_18_2_top"
}
layer {
  name: "res_stage_3_18_3"
  type: "Convolution"
  bottom: "res_stage_3_18_2_top"
  top: "res_stage_3_18_3"
  convolution_param {
    num_output: 1024
    pad: 0
    kernel_size: 1
    stride: 1
    weight_filler {
      type: "msra"
    }
    bias_term: false
  }
}
layer {
  name: "bn_stage_3_18_3"
  type: "BatchNorm"
  bottom: "res_stage_3_18_3"
  top: "res_stage_3_18_3"
  batch_norm_param {
      use_global_stats: false
  }
}
layer {
  name: "scale_stage_3_18_3"  
  type: "Scale"
  bottom: "res_stage_3_18_3"
  top: "res_stage_3_18_3_top"
  scale_param {
	bias_term: true
  }
}
 layer {
  name: "res_3_18"
  type: "Eltwise"
  bottom: "res_3_17"
  bottom: "res_stage_3_18_3_top"
  top: "res_3_18"
  eltwise_param {
    operation: SUM
  }
}
layer {
  name: "res_3_18_relu"
  type: "ReLU"
  bottom: "res_3_18"
  top: "res_3_18"
}
layer {
  name: "res_stage_3_19_1"
  type: "Convolution"
  bottom: "res_3_18"
  top: "res_stage_3_19_1"
  convolution_param {
    num_output: 256
    pad: 0
    kernel_size: 1
    stride: 1
    weight_filler {
      type: "msra"
    }
    bias_term: false
  }
}
layer {
  name: "bn_stage_3_19_1"
  type: "BatchNorm"
  bottom: "res_stage_3_19_1"
  top: "res_stage_3_19_1"
  batch_norm_param {
      use_global_stats: false
  }
}
layer {
  name: "scale_stage_3_19_1"  
  type: "Scale"
  bottom: "res_stage_3_19_1"
  top: "res_stage_3_19_1_top"
  scale_param {
	bias_term: true
  }
}
 layer {
  name: "res_stage_3_19_1_relu"
  type: "ReLU"
  bottom: "res_stage_3_19_1_top"
  top: "res_stage_3_19_1_top"
}
layer {
  name: "res_stage_3_19_2"
  type: "Convolution"
  bottom: "res_stage_3_19_1_top"
  top: "res_stage_3_19_2"
  convolution_param {
    num_output: 256
    pad: 1
    kernel_size: 3
    stride: 1
    weight_filler {
      type: "msra"
    }
    bias_term: false
  }
}
layer {
  name: "bn_stage_3_19_2"
  type: "BatchNorm"
  bottom: "res_stage_3_19_2"
  top: "res_stage_3_19_2"
  batch_norm_param {
      use_global_stats: false
  }
}
layer {
  name: "scale_stage_3_19_2"  
  type: "Scale"
  bottom: "res_stage_3_19_2"
  top: "res_stage_3_19_2_top"
  scale_param {
	bias_term: true
  }
}
 layer {
  name: "res_stage_3_19_2_relu"
  type: "ReLU"
  bottom: "res_stage_3_19_2_top"
  top: "res_stage_3_19_2_top"
}
layer {
  name: "res_stage_3_19_3"
  type: "Convolution"
  bottom: "res_stage_3_19_2_top"
  top: "res_stage_3_19_3"
  convolution_param {
    num_output: 1024
    pad: 0
    kernel_size: 1
    stride: 1
    weight_filler {
      type: "msra"
    }
    bias_term: false
  }
}
layer {
  name: "bn_stage_3_19_3"
  type: "BatchNorm"
  bottom: "res_stage_3_19_3"
  top: "res_stage_3_19_3"
  batch_norm_param {
      use_global_stats: false
  }
}
layer {
  name: "scale_stage_3_19_3"  
  type: "Scale"
  bottom: "res_stage_3_19_3"
  top: "res_stage_3_19_3_top"
  scale_param {
	bias_term: true
  }
}
 layer {
  name: "res_3_19"
  type: "Eltwise"
  bottom: "res_3_18"
  bottom: "res_stage_3_19_3_top"
  top: "res_3_19"
  eltwise_param {
    operation: SUM
  }
}
layer {
  name: "res_3_19_relu"
  type: "ReLU"
  bottom: "res_3_19"
  top: "res_3_19"
}
layer {
  name: "res_stage_3_20_1"
  type: "Convolution"
  bottom: "res_3_19"
  top: "res_stage_3_20_1"
  convolution_param {
    num_output: 256
    pad: 0
    kernel_size: 1
    stride: 1
    weight_filler {
      type: "msra"
    }
    bias_term: false
  }
}
layer {
  name: "bn_stage_3_20_1"
  type: "BatchNorm"
  bottom: "res_stage_3_20_1"
  top: "res_stage_3_20_1"
  batch_norm_param {
      use_global_stats: false
  }
}
layer {
  name: "scale_stage_3_20_1"  
  type: "Scale"
  bottom: "res_stage_3_20_1"
  top: "res_stage_3_20_1_top"
  scale_param {
	bias_term: true
  }
}
 layer {
  name: "res_stage_3_20_1_relu"
  type: "ReLU"
  bottom: "res_stage_3_20_1_top"
  top: "res_stage_3_20_1_top"
}
layer {
  name: "res_stage_3_20_2"
  type: "Convolution"
  bottom: "res_stage_3_20_1_top"
  top: "res_stage_3_20_2"
  convolution_param {
    num_output: 256
    pad: 1
    kernel_size: 3
    stride: 1
    weight_filler {
      type: "msra"
    }
    bias_term: false
  }
}
layer {
  name: "bn_stage_3_20_2"
  type: "BatchNorm"
  bottom: "res_stage_3_20_2"
  top: "res_stage_3_20_2"
  batch_norm_param {
      use_global_stats: false
  }
}
layer {
  name: "scale_stage_3_20_2"  
  type: "Scale"
  bottom: "res_stage_3_20_2"
  top: "res_stage_3_20_2_top"
  scale_param {
	bias_term: true
  }
}
 layer {
  name: "res_stage_3_20_2_relu"
  type: "ReLU"
  bottom: "res_stage_3_20_2_top"
  top: "res_stage_3_20_2_top"
}
layer {
  name: "res_stage_3_20_3"
  type: "Convolution"
  bottom: "res_stage_3_20_2_top"
  top: "res_stage_3_20_3"
  convolution_param {
    num_output: 1024
    pad: 0
    kernel_size: 1
    stride: 1
    weight_filler {
      type: "msra"
    }
    bias_term: false
  }
}
layer {
  name: "bn_stage_3_20_3"
  type: "BatchNorm"
  bottom: "res_stage_3_20_3"
  top: "res_stage_3_20_3"
  batch_norm_param {
      use_global_stats: false
  }
}
layer {
  name: "scale_stage_3_20_3"  
  type: "Scale"
  bottom: "res_stage_3_20_3"
  top: "res_stage_3_20_3_top"
  scale_param {
	bias_term: true
  }
}
 layer {
  name: "res_3_20"
  type: "Eltwise"
  bottom: "res_3_19"
  bottom: "res_stage_3_20_3_top"
  top: "res_3_20"
  eltwise_param {
    operation: SUM
  }
}
layer {
  name: "res_3_20_relu"
  type: "ReLU"
  bottom: "res_3_20"
  top: "res_3_20"
}
layer {
  name: "res_stage_3_21_1"
  type: "Convolution"
  bottom: "res_3_20"
  top: "res_stage_3_21_1"
  convolution_param {
    num_output: 256
    pad: 0
    kernel_size: 1
    stride: 1
    weight_filler {
      type: "msra"
    }
    bias_term: false
  }
}
layer {
  name: "bn_stage_3_21_1"
  type: "BatchNorm"
  bottom: "res_stage_3_21_1"
  top: "res_stage_3_21_1"
  batch_norm_param {
      use_global_stats: false
  }
}
layer {
  name: "scale_stage_3_21_1"  
  type: "Scale"
  bottom: "res_stage_3_21_1"
  top: "res_stage_3_21_1_top"
  scale_param {
	bias_term: true
  }
}
 layer {
  name: "res_stage_3_21_1_relu"
  type: "ReLU"
  bottom: "res_stage_3_21_1_top"
  top: "res_stage_3_21_1_top"
}
layer {
  name: "res_stage_3_21_2"
  type: "Convolution"
  bottom: "res_stage_3_21_1_top"
  top: "res_stage_3_21_2"
  convolution_param {
    num_output: 256
    pad: 1
    kernel_size: 3
    stride: 1
    weight_filler {
      type: "msra"
    }
    bias_term: false
  }
}
layer {
  name: "bn_stage_3_21_2"
  type: "BatchNorm"
  bottom: "res_stage_3_21_2"
  top: "res_stage_3_21_2"
  batch_norm_param {
      use_global_stats: false
  }
}
layer {
  name: "scale_stage_3_21_2"  
  type: "Scale"
  bottom: "res_stage_3_21_2"
  top: "res_stage_3_21_2_top"
  scale_param {
	bias_term: true
  }
}
 layer {
  name: "res_stage_3_21_2_relu"
  type: "ReLU"
  bottom: "res_stage_3_21_2_top"
  top: "res_stage_3_21_2_top"
}
layer {
  name: "res_stage_3_21_3"
  type: "Convolution"
  bottom: "res_stage_3_21_2_top"
  top: "res_stage_3_21_3"
  convolution_param {
    num_output: 1024
    pad: 0
    kernel_size: 1
    stride: 1
    weight_filler {
      type: "msra"
    }
    bias_term: false
  }
}
layer {
  name: "bn_stage_3_21_3"
  type: "BatchNorm"
  bottom: "res_stage_3_21_3"
  top: "res_stage_3_21_3"
  batch_norm_param {
      use_global_stats: false
  }
}
layer {
  name: "scale_stage_3_21_3"  
  type: "Scale"
  bottom: "res_stage_3_21_3"
  top: "res_stage_3_21_3_top"
  scale_param {
	bias_term: true
  }
}
 layer {
  name: "res_3_21"
  type: "Eltwise"
  bottom: "res_3_20"
  bottom: "res_stage_3_21_3_top"
  top: "res_3_21"
  eltwise_param {
    operation: SUM
  }
}
layer {
  name: "res_3_21_relu"
  type: "ReLU"
  bottom: "res_3_21"
  top: "res_3_21"
}
layer {
  name: "res_stage_3_22_1"
  type: "Convolution"
  bottom: "res_3_21"
  top: "res_stage_3_22_1"
  convolution_param {
    num_output: 256
    pad: 0
    kernel_size: 1
    stride: 1
    weight_filler {
      type: "msra"
    }
    bias_term: false
  }
}
layer {
  name: "bn_stage_3_22_1"
  type: "BatchNorm"
  bottom: "res_stage_3_22_1"
  top: "res_stage_3_22_1"
  batch_norm_param {
      use_global_stats: false
  }
}
layer {
  name: "scale_stage_3_22_1"  
  type: "Scale"
  bottom: "res_stage_3_22_1"
  top: "res_stage_3_22_1_top"
  scale_param {
	bias_term: true
  }
}
 layer {
  name: "res_stage_3_22_1_relu"
  type: "ReLU"
  bottom: "res_stage_3_22_1_top"
  top: "res_stage_3_22_1_top"
}
layer {
  name: "res_stage_3_22_2"
  type: "Convolution"
  bottom: "res_stage_3_22_1_top"
  top: "res_stage_3_22_2"
  convolution_param {
    num_output: 256
    pad: 1
    kernel_size: 3
    stride: 1
    weight_filler {
      type: "msra"
    }
    bias_term: false
  }
}
layer {
  name: "bn_stage_3_22_2"
  type: "BatchNorm"
  bottom: "res_stage_3_22_2"
  top: "res_stage_3_22_2"
  batch_norm_param {
      use_global_stats: false
  }
}
layer {
  name: "scale_stage_3_22_2"  
  type: "Scale"
  bottom: "res_stage_3_22_2"
  top: "res_stage_3_22_2_top"
  scale_param {
	bias_term: true
  }
}
 layer {
  name: "res_stage_3_22_2_relu"
  type: "ReLU"
  bottom: "res_stage_3_22_2_top"
  top: "res_stage_3_22_2_top"
}
layer {
  name: "res_stage_3_22_3"
  type: "Convolution"
  bottom: "res_stage_3_22_2_top"
  top: "res_stage_3_22_3"
  convolution_param {
    num_output: 1024
    pad: 0
    kernel_size: 1
    stride: 1
    weight_filler {
      type: "msra"
    }
    bias_term: false
  }
}
layer {
  name: "bn_stage_3_22_3"
  type: "BatchNorm"
  bottom: "res_stage_3_22_3"
  top: "res_stage_3_22_3"
  batch_norm_param {
      use_global_stats: false
  }
}
layer {
  name: "scale_stage_3_22_3"  
  type: "Scale"
  bottom: "res_stage_3_22_3"
  top: "res_stage_3_22_3_top"
  scale_param {
	bias_term: true
  }
}
 layer {
  name: "res_3_22"
  type: "Eltwise"
  bottom: "res_3_21"
  bottom: "res_stage_3_22_3_top"
  top: "res_3_22"
  eltwise_param {
    operation: SUM
  }
}
layer {
  name: "res_3_22_relu"
  type: "ReLU"
  bottom: "res_3_22"
  top: "res_3_22"
}
layer {
  name: "res_stage_3_23_1"
  type: "Convolution"
  bottom: "res_3_22"
  top: "res_stage_3_23_1"
  convolution_param {
    num_output: 256
    pad: 0
    kernel_size: 1
    stride: 1
    weight_filler {
      type: "msra"
    }
    bias_term: false
  }
}
layer {
  name: "bn_stage_3_23_1"
  type: "BatchNorm"
  bottom: "res_stage_3_23_1"
  top: "res_stage_3_23_1"
  batch_norm_param {
      use_global_stats: false
  }
}
layer {
  name: "scale_stage_3_23_1"  
  type: "Scale"
  bottom: "res_stage_3_23_1"
  top: "res_stage_3_23_1_top"
  scale_param {
	bias_term: true
  }
}
 layer {
  name: "res_stage_3_23_1_relu"
  type: "ReLU"
  bottom: "res_stage_3_23_1_top"
  top: "res_stage_3_23_1_top"
}
layer {
  name: "res_stage_3_23_2"
  type: "Convolution"
  bottom: "res_stage_3_23_1_top"
  top: "res_stage_3_23_2"
  convolution_param {
    num_output: 256
    pad: 1
    kernel_size: 3
    stride: 1
    weight_filler {
      type: "msra"
    }
    bias_term: false
  }
}
layer {
  name: "bn_stage_3_23_2"
  type: "BatchNorm"
  bottom: "res_stage_3_23_2"
  top: "res_stage_3_23_2"
  batch_norm_param {
      use_global_stats: false
  }
}
layer {
  name: "scale_stage_3_23_2"  
  type: "Scale"
  bottom: "res_stage_3_23_2"
  top: "res_stage_3_23_2_top"
  scale_param {
	bias_term: true
  }
}
 layer {
  name: "res_stage_3_23_2_relu"
  type: "ReLU"
  bottom: "res_stage_3_23_2_top"
  top: "res_stage_3_23_2_top"
}
layer {
  name: "res_stage_3_23_3"
  type: "Convolution"
  bottom: "res_stage_3_23_2_top"
  top: "res_stage_3_23_3"
  convolution_param {
    num_output: 1024
    pad: 0
    kernel_size: 1
    stride: 1
    weight_filler {
      type: "msra"
    }
    bias_term: false
  }
}
layer {
  name: "bn_stage_3_23_3"
  type: "BatchNorm"
  bottom: "res_stage_3_23_3"
  top: "res_stage_3_23_3"
  batch_norm_param {
      use_global_stats: false
  }
}
layer {
  name: "scale_stage_3_23_3"  
  type: "Scale"
  bottom: "res_stage_3_23_3"
  top: "res_stage_3_23_3_top"
  scale_param {
	bias_term: true
  }
}
 layer {
  name: "res_3_23"
  type: "Eltwise"
  bottom: "res_3_22"
  bottom: "res_stage_3_23_3_top"
  top: "res_3_23"
  eltwise_param {
    operation: SUM
  }
}
layer {
  name: "res_3_23_relu"
  type: "ReLU"
  bottom: "res_3_23"
  top: "res_3_23"
}
layer {
  name: "res_stage_3_24_1"
  type: "Convolution"
  bottom: "res_3_23"
  top: "res_stage_3_24_1"
  convolution_param {
    num_output: 256
    pad: 0
    kernel_size: 1
    stride: 1
    weight_filler {
      type: "msra"
    }
    bias_term: false
  }
}
layer {
  name: "bn_stage_3_24_1"
  type: "BatchNorm"
  bottom: "res_stage_3_24_1"
  top: "res_stage_3_24_1"
  batch_norm_param {
      use_global_stats: false
  }
}
layer {
  name: "scale_stage_3_24_1"  
  type: "Scale"
  bottom: "res_stage_3_24_1"
  top: "res_stage_3_24_1_top"
  scale_param {
	bias_term: true
  }
}
 layer {
  name: "res_stage_3_24_1_relu"
  type: "ReLU"
  bottom: "res_stage_3_24_1_top"
  top: "res_stage_3_24_1_top"
}
layer {
  name: "res_stage_3_24_2"
  type: "Convolution"
  bottom: "res_stage_3_24_1_top"
  top: "res_stage_3_24_2"
  convolution_param {
    num_output: 256
    pad: 1
    kernel_size: 3
    stride: 1
    weight_filler {
      type: "msra"
    }
    bias_term: false
  }
}
layer {
  name: "bn_stage_3_24_2"
  type: "BatchNorm"
  bottom: "res_stage_3_24_2"
  top: "res_stage_3_24_2"
  batch_norm_param {
      use_global_stats: false
  }
}
layer {
  name: "scale_stage_3_24_2"  
  type: "Scale"
  bottom: "res_stage_3_24_2"
  top: "res_stage_3_24_2_top"
  scale_param {
	bias_term: true
  }
}
 layer {
  name: "res_stage_3_24_2_relu"
  type: "ReLU"
  bottom: "res_stage_3_24_2_top"
  top: "res_stage_3_24_2_top"
}
layer {
  name: "res_stage_3_24_3"
  type: "Convolution"
  bottom: "res_stage_3_24_2_top"
  top: "res_stage_3_24_3"
  convolution_param {
    num_output: 1024
    pad: 0
    kernel_size: 1
    stride: 1
    weight_filler {
      type: "msra"
    }
    bias_term: false
  }
}
layer {
  name: "bn_stage_3_24_3"
  type: "BatchNorm"
  bottom: "res_stage_3_24_3"
  top: "res_stage_3_24_3"
  batch_norm_param {
      use_global_stats: false
  }
}
layer {
  name: "scale_stage_3_24_3"  
  type: "Scale"
  bottom: "res_stage_3_24_3"
  top: "res_stage_3_24_3_top"
  scale_param {
	bias_term: true
  }
}
 layer {
  name: "res_3_24"
  type: "Eltwise"
  bottom: "res_3_23"
  bottom: "res_stage_3_24_3_top"
  top: "res_3_24"
  eltwise_param {
    operation: SUM
  }
}
layer {
  name: "res_3_24_relu"
  type: "ReLU"
  bottom: "res_3_24"
  top: "res_3_24"
}
layer {
  name: "res_stage_3_25_1"
  type: "Convolution"
  bottom: "res_3_24"
  top: "res_stage_3_25_1"
  convolution_param {
    num_output: 256
    pad: 0
    kernel_size: 1
    stride: 1
    weight_filler {
      type: "msra"
    }
    bias_term: false
  }
}
layer {
  name: "bn_stage_3_25_1"
  type: "BatchNorm"
  bottom: "res_stage_3_25_1"
  top: "res_stage_3_25_1"
  batch_norm_param {
      use_global_stats: false
  }
}
layer {
  name: "scale_stage_3_25_1"  
  type: "Scale"
  bottom: "res_stage_3_25_1"
  top: "res_stage_3_25_1_top"
  scale_param {
	bias_term: true
  }
}
 layer {
  name: "res_stage_3_25_1_relu"
  type: "ReLU"
  bottom: "res_stage_3_25_1_top"
  top: "res_stage_3_25_1_top"
}
layer {
  name: "res_stage_3_25_2"
  type: "Convolution"
  bottom: "res_stage_3_25_1_top"
  top: "res_stage_3_25_2"
  convolution_param {
    num_output: 256
    pad: 1
    kernel_size: 3
    stride: 1
    weight_filler {
      type: "msra"
    }
    bias_term: false
  }
}
layer {
  name: "bn_stage_3_25_2"
  type: "BatchNorm"
  bottom: "res_stage_3_25_2"
  top: "res_stage_3_25_2"
  batch_norm_param {
      use_global_stats: false
  }
}
layer {
  name: "scale_stage_3_25_2"  
  type: "Scale"
  bottom: "res_stage_3_25_2"
  top: "res_stage_3_25_2_top"
  scale_param {
	bias_term: true
  }
}
 layer {
  name: "res_stage_3_25_2_relu"
  type: "ReLU"
  bottom: "res_stage_3_25_2_top"
  top: "res_stage_3_25_2_top"
}
layer {
  name: "res_stage_3_25_3"
  type: "Convolution"
  bottom: "res_stage_3_25_2_top"
  top: "res_stage_3_25_3"
  convolution_param {
    num_output: 1024
    pad: 0
    kernel_size: 1
    stride: 1
    weight_filler {
      type: "msra"
    }
    bias_term: false
  }
}
layer {
  name: "bn_stage_3_25_3"
  type: "BatchNorm"
  bottom: "res_stage_3_25_3"
  top: "res_stage_3_25_3"
  batch_norm_param {
      use_global_stats: false
  }
}
layer {
  name: "scale_stage_3_25_3"  
  type: "Scale"
  bottom: "res_stage_3_25_3"
  top: "res_stage_3_25_3_top"
  scale_param {
	bias_term: true
  }
}
 layer {
  name: "res_3_25"
  type: "Eltwise"
  bottom: "res_3_24"
  bottom: "res_stage_3_25_3_top"
  top: "res_3_25"
  eltwise_param {
    operation: SUM
  }
}
layer {
  name: "res_3_25_relu"
  type: "ReLU"
  bottom: "res_3_25"
  top: "res_3_25"
}
layer {
  name: "res_stage_3_26_1"
  type: "Convolution"
  bottom: "res_3_25"
  top: "res_stage_3_26_1"
  convolution_param {
    num_output: 256
    pad: 0
    kernel_size: 1
    stride: 1
    weight_filler {
      type: "msra"
    }
    bias_term: false
  }
}
layer {
  name: "bn_stage_3_26_1"
  type: "BatchNorm"
  bottom: "res_stage_3_26_1"
  top: "res_stage_3_26_1"
  batch_norm_param {
      use_global_stats: false
  }
}
layer {
  name: "scale_stage_3_26_1"  
  type: "Scale"
  bottom: "res_stage_3_26_1"
  top: "res_stage_3_26_1_top"
  scale_param {
	bias_term: true
  }
}
 layer {
  name: "res_stage_3_26_1_relu"
  type: "ReLU"
  bottom: "res_stage_3_26_1_top"
  top: "res_stage_3_26_1_top"
}
layer {
  name: "res_stage_3_26_2"
  type: "Convolution"
  bottom: "res_stage_3_26_1_top"
  top: "res_stage_3_26_2"
  convolution_param {
    num_output: 256
    pad: 1
    kernel_size: 3
    stride: 1
    weight_filler {
      type: "msra"
    }
    bias_term: false
  }
}
layer {
  name: "bn_stage_3_26_2"
  type: "BatchNorm"
  bottom: "res_stage_3_26_2"
  top: "res_stage_3_26_2"
  batch_norm_param {
      use_global_stats: false
  }
}
layer {
  name: "scale_stage_3_26_2"  
  type: "Scale"
  bottom: "res_stage_3_26_2"
  top: "res_stage_3_26_2_top"
  scale_param {
	bias_term: true
  }
}
 layer {
  name: "res_stage_3_26_2_relu"
  type: "ReLU"
  bottom: "res_stage_3_26_2_top"
  top: "res_stage_3_26_2_top"
}
layer {
  name: "res_stage_3_26_3"
  type: "Convolution"
  bottom: "res_stage_3_26_2_top"
  top: "res_stage_3_26_3"
  convolution_param {
    num_output: 1024
    pad: 0
    kernel_size: 1
    stride: 1
    weight_filler {
      type: "msra"
    }
    bias_term: false
  }
}
layer {
  name: "bn_stage_3_26_3"
  type: "BatchNorm"
  bottom: "res_stage_3_26_3"
  top: "res_stage_3_26_3"
  batch_norm_param {
      use_global_stats: false
  }
}
layer {
  name: "scale_stage_3_26_3"  
  type: "Scale"
  bottom: "res_stage_3_26_3"
  top: "res_stage_3_26_3_top"
  scale_param {
	bias_term: true
  }
}
 layer {
  name: "res_3_26"
  type: "Eltwise"
  bottom: "res_3_25"
  bottom: "res_stage_3_26_3_top"
  top: "res_3_26"
  eltwise_param {
    operation: SUM
  }
}
layer {
  name: "res_3_26_relu"
  type: "ReLU"
  bottom: "res_3_26"
  top: "res_3_26"
}
layer {
  name: "res_stage_3_27_1"
  type: "Convolution"
  bottom: "res_3_26"
  top: "res_stage_3_27_1"
  convolution_param {
    num_output: 256
    pad: 0
    kernel_size: 1
    stride: 1
    weight_filler {
      type: "msra"
    }
    bias_term: false
  }
}
layer {
  name: "bn_stage_3_27_1"
  type: "BatchNorm"
  bottom: "res_stage_3_27_1"
  top: "res_stage_3_27_1"
  batch_norm_param {
      use_global_stats: false
  }
}
layer {
  name: "scale_stage_3_27_1"  
  type: "Scale"
  bottom: "res_stage_3_27_1"
  top: "res_stage_3_27_1_top"
  scale_param {
	bias_term: true
  }
}
 layer {
  name: "res_stage_3_27_1_relu"
  type: "ReLU"
  bottom: "res_stage_3_27_1_top"
  top: "res_stage_3_27_1_top"
}
layer {
  name: "res_stage_3_27_2"
  type: "Convolution"
  bottom: "res_stage_3_27_1_top"
  top: "res_stage_3_27_2"
  convolution_param {
    num_output: 256
    pad: 1
    kernel_size: 3
    stride: 1
    weight_filler {
      type: "msra"
    }
    bias_term: false
  }
}
layer {
  name: "bn_stage_3_27_2"
  type: "BatchNorm"
  bottom: "res_stage_3_27_2"
  top: "res_stage_3_27_2"
  batch_norm_param {
      use_global_stats: false
  }
}
layer {
  name: "scale_stage_3_27_2"  
  type: "Scale"
  bottom: "res_stage_3_27_2"
  top: "res_stage_3_27_2_top"
  scale_param {
	bias_term: true
  }
}
 layer {
  name: "res_stage_3_27_2_relu"
  type: "ReLU"
  bottom: "res_stage_3_27_2_top"
  top: "res_stage_3_27_2_top"
}
layer {
  name: "res_stage_3_27_3"
  type: "Convolution"
  bottom: "res_stage_3_27_2_top"
  top: "res_stage_3_27_3"
  convolution_param {
    num_output: 1024
    pad: 0
    kernel_size: 1
    stride: 1
    weight_filler {
      type: "msra"
    }
    bias_term: false
  }
}
layer {
  name: "bn_stage_3_27_3"
  type: "BatchNorm"
  bottom: "res_stage_3_27_3"
  top: "res_stage_3_27_3"
  batch_norm_param {
      use_global_stats: false
  }
}
layer {
  name: "scale_stage_3_27_3"  
  type: "Scale"
  bottom: "res_stage_3_27_3"
  top: "res_stage_3_27_3_top"
  scale_param {
	bias_term: true
  }
}
 layer {
  name: "res_3_27"
  type: "Eltwise"
  bottom: "res_3_26"
  bottom: "res_stage_3_27_3_top"
  top: "res_3_27"
  eltwise_param {
    operation: SUM
  }
}
layer {
  name: "res_3_27_relu"
  type: "ReLU"
  bottom: "res_3_27"
  top: "res_3_27"
}
layer {
  name: "res_stage_3_28_1"
  type: "Convolution"
  bottom: "res_3_27"
  top: "res_stage_3_28_1"
  convolution_param {
    num_output: 256
    pad: 0
    kernel_size: 1
    stride: 1
    weight_filler {
      type: "msra"
    }
    bias_term: false
  }
}
layer {
  name: "bn_stage_3_28_1"
  type: "BatchNorm"
  bottom: "res_stage_3_28_1"
  top: "res_stage_3_28_1"
  batch_norm_param {
      use_global_stats: false
  }
}
layer {
  name: "scale_stage_3_28_1"  
  type: "Scale"
  bottom: "res_stage_3_28_1"
  top: "res_stage_3_28_1_top"
  scale_param {
	bias_term: true
  }
}
 layer {
  name: "res_stage_3_28_1_relu"
  type: "ReLU"
  bottom: "res_stage_3_28_1_top"
  top: "res_stage_3_28_1_top"
}
layer {
  name: "res_stage_3_28_2"
  type: "Convolution"
  bottom: "res_stage_3_28_1_top"
  top: "res_stage_3_28_2"
  convolution_param {
    num_output: 256
    pad: 1
    kernel_size: 3
    stride: 1
    weight_filler {
      type: "msra"
    }
    bias_term: false
  }
}
layer {
  name: "bn_stage_3_28_2"
  type: "BatchNorm"
  bottom: "res_stage_3_28_2"
  top: "res_stage_3_28_2"
…
  convolution_param {
    num_output: 1024
    pad: 0
    kernel_size: 1
    stride: 1
    weight_filler {
      type: "msra"
    }
    bias_term: false
  }
}
layer {
  name: "bn_stage_3_774_3"
  type: "BatchNorm"
  bottom: "res_stage_3_774_3"
  top: "res_stage_3_774_3"
  batch_norm_param {
      use_global_stats: false
  }
}
layer {
  name: "scale_stage_3_774_3"  
  type: "Scale"
  bottom: "res_stage_3_774_3"
  top: "res_stage_3_774_3_top"
  scale_param {
	bias_term: true
  }
}
 layer {
  name: "res_3_774"
  type: "Eltwise"
  bottom: "res_3_773"
  bottom: "res_stage_3_774_3_top"
  top: "res_3_774"
  eltwise_param {
    operation: SUM
  }
}
layer {
  name: "res_3_774_relu"
  type: "ReLU"
  bottom: "res_3_774"
  top: "res_3_774"
}
layer {
  name: "res_stage_3_775_1"
  type: "Convolution"
  bottom: "res_3_774"
  top: "res_stage_3_775_1"
  convolution_param {
    num_output: 256
    pad: 0
    kernel_size: 1
    stride: 1
    weight_filler {
      type: "msra"
    }
    bias_term: false
  }
}
layer {
  name: "bn_stage_3_775_1"
  type: "BatchNorm"
  bottom: "res_stage_3_775_1"
  top: "res_stage_3_775_1"
  batch_norm_param {
      use_global_stats: false
  }
}
layer {
  name: "scale_stage_3_775_1"  
  type: "Scale"
  bottom: "res_stage_3_775_1"
  top: "res_stage_3_775_1_top"
  scale_param {
	bias_term: true
  }
}
 layer {
  name: "res_stage_3_775_1_relu"
  type: "ReLU"
  bottom: "res_stage_3_775_1_top"
  top: "res_stage_3_775_1_top"
}
layer {
  name: "res_stage_3_775_2"
  type: "Convolution"
  bottom: "res_stage_3_775_1_top"
  top: "res_stage_3_775_2"
  convolution_param {
    num_output: 256
    pad: 1
    kernel_size: 3
    stride: 1
    weight_filler {
      type: "msra"
    }
    bias_term: false
  }
}
layer {
  name: "bn_stage_3_775_2"
  type: "BatchNorm"
  bottom: "res_stage_3_775_2"
  top: "res_stage_3_775_2"
  batch_norm_param {
      use_global_stats: false
  }
}
layer {
  name: "scale_stage_3_775_2"  
  type: "Scale"
  bottom: "res_stage_3_775_2"
  top: "res_stage_3_775_2_top"
  scale_param {
	bias_term: true
  }
}
 layer {
  name: "res_stage_3_775_2_relu"
  type: "ReLU"
  bottom: "res_stage_3_775_2_top"
  top: "res_stage_3_775_2_top"
}
layer {
  name: "res_stage_3_775_3"
  type: "Convolution"
  bottom: "res_stage_3_775_2_top"
  top: "res_stage_3_775_3"
  convolution_param {
    num_output: 1024
    pad: 0
    kernel_size: 1
    stride: 1
    weight_filler {
      type: "msra"
    }
    bias_term: false
  }
}
layer {
  name: "bn_stage_3_775_3"
  type: "BatchNorm"
  bottom: "res_stage_3_775_3"
  top: "res_stage_3_775_3"
  batch_norm_param {
      use_global_stats: false
  }
}
layer {
  name: "scale_stage_3_775_3"  
  type: "Scale"
  bottom: "res_stage_3_775_3"
  top: "res_stage_3_775_3_top"
  scale_param {
	bias_term: true
  }
}
 layer {
  name: "res_3_775"
  type: "Eltwise"
  bottom: "res_3_774"
  bottom: "res_stage_3_775_3_top"
  top: "res_3_775"
  eltwise_param {
    operation: SUM
  }
}
layer {
  name: "res_3_775_relu"
  type: "ReLU"
  bottom: "res_3_775"
  top: "res_3_775"
}
layer {
  name: "res_stage_3_776_1"
  type: "Convolution"
  bottom: "res_3_775"
  top: "res_stage_3_776_1"
  convolution_param {
    num_output: 256
    pad: 0
    kernel_size: 1
    stride: 1
    weight_filler {
      type: "msra"
    }
    bias_term: false
  }
}
layer {
  name: "bn_stage_3_776_1"
  type: "BatchNorm"
  bottom: "res_stage_3_776_1"
  top: "res_stage_3_776_1"
  batch_norm_param {
      use_global_stats: false
  }
}
layer {
  name: "scale_stage_3_776_1"  
  type: "Scale"
  bottom: "res_stage_3_776_1"
  top: "res_stage_3_776_1_top"
  scale_param {
	bias_term: true
  }
}
 layer {
  name: "res_stage_3_776_1_relu"
  type: "ReLU"
  bottom: "res_stage_3_776_1_top"
  top: "res_stage_3_776_1_top"
}
layer {
  name: "res_stage_3_776_2"
  type: "Convolution"
  bottom: "res_stage_3_776_1_top"
  top: "res_stage_3_776_2"
  convolution_param {
    num_output: 256
    pad: 1
    kernel_size: 3
    stride: 1
    weight_filler {
      type: "msra"
    }
    bias_term: false
  }
}
layer {
  name: "bn_stage_3_776_2"
  type: "BatchNorm"
  bottom: "res_stage_3_776_2"
  top: "res_stage_3_776_2"
  batch_norm_param {
      use_global_stats: false
  }
}
layer {
  name: "scale_stage_3_776_2"  
  type: "Scale"
  bottom: "res_stage_3_776_2"
  top: "res_stage_3_776_2_top"
  scale_param {
	bias_term: true
  }
}
 layer {
  name: "res_stage_3_776_2_relu"
  type: "ReLU"
  bottom: "res_stage_3_776_2_top"
  top: "res_stage_3_776_2_top"
}
layer {
  name: "res_stage_3_776_3"
  type: "Convolution"
  bottom: "res_stage_3_776_2_top"
  top: "res_stage_3_776_3"
  convolution_param {
    num_output: 1024
    pad: 0
    kernel_size: 1
    stride: 1
    weight_filler {
      type: "msra"
    }
    bias_term: false
  }
}
layer {
  name: "bn_stage_3_776_3"
  type: "BatchNorm"
  bottom: "res_stage_3_776_3"
  top: "res_stage_3_776_3"
  batch_norm_param {
      use_global_stats: false
  }
}
layer {
  name: "scale_stage_3_776_3"  
  type: "Scale"
  bottom: "res_stage_3_776_3"
  top: "res_stage_3_776_3_top"
  scale_param {
	bias_term: true
  }
}
 layer {
  name: "res_3_776"
  type: "Eltwise"
  bottom: "res_3_775"
  bottom: "res_stage_3_776_3_top"
  top: "res_3_776"
  eltwise_param {
    operation: SUM
  }
}
layer {
  name: "res_3_776_relu"
  type: "ReLU"
  bottom: "res_3_776"
  top: "res_3_776"
}
layer {
  name: "res_stage_3_777_1"
  type: "Convolution"
  bottom: "res_3_776"
  top: "res_stage_3_777_1"
  convolution_param {
    num_output: 256
    pad: 0
    kernel_size: 1
    stride: 1
    weight_filler {
      type: "msra"
    }
    bias_term: false
  }
}
layer {
  name: "bn_stage_3_777_1"
  type: "BatchNorm"
  bottom: "res_stage_3_777_1"
  top: "res_stage_3_777_1"
  batch_norm_param {
      use_global_stats: false
  }
}
layer {
  name: "scale_stage_3_777_1"  
  type: "Scale"
  bottom: "res_stage_3_777_1"
  top: "res_stage_3_777_1_top"
  scale_param {
	bias_term: true
  }
}
 layer {
  name: "res_stage_3_777_1_relu"
  type: "ReLU"
  bottom: "res_stage_3_777_1_top"
  top: "res_stage_3_777_1_top"
}
layer {
  name: "res_stage_3_777_2"
  type: "Convolution"
  bottom: "res_stage_3_777_1_top"
  top: "res_stage_3_777_2"
  convolution_param {
    num_output: 256
    pad: 1
    kernel_size: 3
    stride: 1
    weight_filler {
      type: "msra"
    }
    bias_term: false
  }
}
layer {
  name: "bn_stage_3_777_2"
  type: "BatchNorm"
  bottom: "res_stage_3_777_2"
  top: "res_stage_3_777_2"
  batch_norm_param {
      use_global_stats: false
  }
}
layer {
  name: "scale_stage_3_777_2"  
  type: "Scale"
  bottom: "res_stage_3_777_2"
  top: "res_stage_3_777_2_top"
  scale_param {
	bias_term: true
  }
}
 layer {
  name: "res_stage_3_777_2_relu"
  type: "ReLU"
  bottom: "res_stage_3_777_2_top"
  top: "res_stage_3_777_2_top"
}
layer {
  name: "res_stage_3_777_3"
  type: "Convolution"
  bottom: "res_stage_3_777_2_top"
  top: "res_stage_3_777_3"
  convolution_param {
    num_output: 1024
    pad: 0
    kernel_size: 1
    stride: 1
    weight_filler {
      type: "msra"
    }
    bias_term: false
  }
}
layer {
  name: "bn_stage_3_777_3"
  type: "BatchNorm"
  bottom: "res_stage_3_777_3"
  top: "res_stage_3_777_3"
  batch_norm_param {
      use_global_stats: false
  }
}
layer {
  name: "scale_stage_3_777_3"  
  type: "Scale"
  bottom: "res_stage_3_777_3"
  top: "res_stage_3_777_3_top"
  scale_param {
	bias_term: true
  }
}
 layer {
  name: "res_3_777"
  type: "Eltwise"
  bottom: "res_3_776"
  bottom: "res_stage_3_777_3_top"
  top: "res_3_777"
  eltwise_param {
    operation: SUM
  }
}
layer {
  name: "res_3_777_relu"
  type: "ReLU"
  bottom: "res_3_777"
  top: "res_3_777"
}
layer {
  name: "res_stage_3_778_1"
  type: "Convolution"
  bottom: "res_3_777"
  top: "res_stage_3_778_1"
  convolution_param {
    num_output: 256
    pad: 0
    kernel_size: 1
    stride: 1
    weight_filler {
      type: "msra"
    }
    bias_term: false
  }
}
layer {
  name: "bn_stage_3_778_1"
  type: "BatchNorm"
  bottom: "res_stage_3_778_1"
  top: "res_stage_3_778_1"
  batch_norm_param {
      use_global_stats: false
  }
}
layer {
  name: "scale_stage_3_778_1"  
  type: "Scale"
  bottom: "res_stage_3_778_1"
  top: "res_stage_3_778_1_top"
  scale_param {
	bias_term: true
  }
}
 layer {
  name: "res_stage_3_778_1_relu"
  type: "ReLU"
  bottom: "res_stage_3_778_1_top"
  top: "res_stage_3_778_1_top"
}
layer {
  name: "res_stage_3_778_2"
  type: "Convolution"
  bottom: "res_stage_3_778_1_top"
  top: "res_stage_3_778_2"
  convolution_param {
    num_output: 256
    pad: 1
    kernel_size: 3
    stride: 1
    weight_filler {
      type: "msra"
    }
    bias_term: false
  }
}
layer {
  name: "bn_stage_3_778_2"
  type: "BatchNorm"
  bottom: "res_stage_3_778_2"
  top: "res_stage_3_778_2"
  batch_norm_param {
      use_global_stats: false
  }
}
layer {
  name: "scale_stage_3_778_2"  
  type: "Scale"
  bottom: "res_stage_3_778_2"
  top: "res_stage_3_778_2_top"
  scale_param {
	bias_term: true
  }
}
 layer {
  name: "res_stage_3_778_2_relu"
  type: "ReLU"
  bottom: "res_stage_3_778_2_top"
  top: "res_stage_3_778_2_top"
}
layer {
  name: "res_stage_3_778_3"
  type: "Convolution"
  bottom: "res_stage_3_778_2_top"
  top: "res_stage_3_778_3"
  convolution_param {
    num_output: 1024
    pad: 0
    kernel_size: 1
    stride: 1
    weight_filler {
      type: "msra"
    }
    bias_term: false
  }
}
layer {
  name: "bn_stage_3_778_3"
  type: "BatchNorm"
  bottom: "res_stage_3_778_3"
  top: "res_stage_3_778_3"
  batch_norm_param {
      use_global_stats: false
  }
}
layer {
  name: "scale_stage_3_778_3"  
  type: "Scale"
  bottom: "res_stage_3_778_3"
  top: "res_stage_3_778_3_top"
  scale_param {
	bias_term: true
  }
}
 layer {
  name: "res_3_778"
  type: "Eltwise"
  bottom: "res_3_777"
  bottom: "res_stage_3_778_3_top"
  top: "res_3_778"
  eltwise_param {
    operation: SUM
  }
}
layer {
  name: "res_3_778_relu"
  type: "ReLU"
  bottom: "res_3_778"
  top: "res_3_778"
}
layer {
  name: "res_stage_3_779_1"
  type: "Convolution"
  bottom: "res_3_778"
  top: "res_stage_3_779_1"
  convolution_param {
    num_output: 256
    pad: 0
    kernel_size: 1
    stride: 1
    weight_filler {
      type: "msra"
    }
    bias_term: false
  }
}
layer {
  name: "bn_stage_3_779_1"
  type: "BatchNorm"
  bottom: "res_stage_3_779_1"
  top: "res_stage_3_779_1"
  batch_norm_param {
      use_global_stats: false
  }
}
layer {
  name: "scale_stage_3_779_1"  
  type: "Scale"
  bottom: "res_stage_3_779_1"
  top: "res_stage_3_779_1_top"
  scale_param {
	bias_term: true
  }
}
 layer {
  name: "res_stage_3_779_1_relu"
  type: "ReLU"
  bottom: "res_stage_3_779_1_top"
  top: "res_stage_3_779_1_top"
}
layer {
  name: "res_stage_3_779_2"
  type: "Convolution"
  bottom: "res_stage_3_779_1_top"
  top: "res_stage_3_779_2"
  convolution_param {
    num_output: 256
    pad: 1
    kernel_size: 3
    stride: 1
    weight_filler {
      type: "msra"
    }
    bias_term: false
  }
}
layer {
  name: "bn_stage_3_779_2"
  type: "BatchNorm"
  bottom: "res_stage_3_779_2"
  top: "res_stage_3_779_2"
  batch_norm_param {
      use_global_stats: false
  }
}
layer {
  name: "scale_stage_3_779_2"  
  type: "Scale"
  bottom: "res_stage_3_779_2"
  top: "res_stage_3_779_2_top"
  scale_param {
	bias_term: true
  }
}
 layer {
  name: "res_stage_3_779_2_relu"
  type: "ReLU"
  bottom: "res_stage_3_779_2_top"
  top: "res_stage_3_779_2_top"
}
layer {
  name: "res_stage_3_779_3"
  type: "Convolution"
  bottom: "res_stage_3_779_2_top"
  top: "res_stage_3_779_3"
  convolution_param {
    num_output: 1024
    pad: 0
    kernel_size: 1
    stride: 1
    weight_filler {
      type: "msra"
    }
    bias_term: false
  }
}
layer {
  name: "bn_stage_3_779_3"
  type: "BatchNorm"
  bottom: "res_stage_3_779_3"
  top: "res_stage_3_779_3"
  batch_norm_param {
      use_global_stats: false
  }
}
layer {
  name: "scale_stage_3_779_3"  
  type: "Scale"
  bottom: "res_stage_3_779_3"
  top: "res_stage_3_779_3_top"
  scale_param {
	bias_term: true
  }
}
 layer {
  name: "res_3_779"
  type: "Eltwise"
  bottom: "res_3_778"
  bottom: "res_stage_3_779_3_top"
  top: "res_3_779"
  eltwise_param {
    operation: SUM
  }
}
layer {
  name: "res_3_779_relu"
  type: "ReLU"
  bottom: "res_3_779"
  top: "res_3_779"
}
layer {
  name: "res_stage_3_780_1"
  type: "Convolution"
  bottom: "res_3_779"
  top: "res_stage_3_780_1"
  convolution_param {
    num_output: 256
    pad: 0
    kernel_size: 1
    stride: 1
    weight_filler {
      type: "msra"
    }
    bias_term: false
  }
}
layer {
  name: "bn_stage_3_780_1"
  type: "BatchNorm"
  bottom: "res_stage_3_780_1"
  top: "res_stage_3_780_1"
  batch_norm_param {
      use_global_stats: false
  }
}
layer {
  name: "scale_stage_3_780_1"  
  type: "Scale"
  bottom: "res_stage_3_780_1"
  top: "res_stage_3_780_1_top"
  scale_param {
	bias_term: true
  }
}
 layer {
  name: "res_stage_3_780_1_relu"
  type: "ReLU"
  bottom: "res_stage_3_780_1_top"
  top: "res_stage_3_780_1_top"
}
layer {
  name: "res_stage_3_780_2"
  type: "Convolution"
  bottom: "res_stage_3_780_1_top"
  top: "res_stage_3_780_2"
  convolution_param {
    num_output: 256
    pad: 1
    kernel_size: 3
    stride: 1
    weight_filler {
      type: "msra"
    }
    bias_term: false
  }
}
layer {
  name: "bn_stage_3_780_2"
  type: "BatchNorm"
  bottom: "res_stage_3_780_2"
  top: "res_stage_3_780_2"
  batch_norm_param {
      use_global_stats: false
  }
}
layer {
  name: "scale_stage_3_780_2"  
  type: "Scale"
  bottom: "res_stage_3_780_2"
  top: "res_stage_3_780_2_top"
  scale_param {
	bias_term: true
  }
}
 layer {
  name: "res_stage_3_780_2_relu"
  type: "ReLU"
  bottom: "res_stage_3_780_2_top"
  top: "res_stage_3_780_2_top"
}
layer {
  name: "res_stage_3_780_3"
  type: "Convolution"
  bottom: "res_stage_3_780_2_top"
  top: "res_stage_3_780_3"
  convolution_param {
    num_output: 1024
    pad: 0
    kernel_size: 1
    stride: 1
    weight_filler {
      type: "msra"
    }
    bias_term: false
  }
}
layer {
  name: "bn_stage_3_780_3"
  type: "BatchNorm"
  bottom: "res_stage_3_780_3"
  top: "res_stage_3_780_3"
  batch_norm_param {
      use_global_stats: false
  }
}
layer {
  name: "scale_stage_3_780_3"  
  type: "Scale"
  bottom: "res_stage_3_780_3"
  top: "res_stage_3_780_3_top"
  scale_param {
	bias_term: true
  }
}
 layer {
  name: "res_3_780"
  type: "Eltwise"
  bottom: "res_3_779"
  bottom: "res_stage_3_780_3_top"
  top: "res_3_780"
  eltwise_param {
    operation: SUM
  }
}
layer {
  name: "res_3_780_relu"
  type: "ReLU"
  bottom: "res_3_780"
  top: "res_3_780"
}
layer {
  name: "res_stage_3_781_1"
  type: "Convolution"
  bottom: "res_3_780"
  top: "res_stage_3_781_1"
  convolution_param {
    num_output: 256
    pad: 0
    kernel_size: 1
    stride: 1
    weight_filler {
      type: "msra"
    }
    bias_term: false
  }
}
layer {
  name: "bn_stage_3_781_1"
  type: "BatchNorm"
  bottom: "res_stage_3_781_1"
  top: "res_stage_3_781_1"
  batch_norm_param {
      use_global_stats: false
  }
}
layer {
  name: "scale_stage_3_781_1"  
  type: "Scale"
  bottom: "res_stage_3_781_1"
  top: "res_stage_3_781_1_top"
  scale_param {
	bias_term: true
  }
}
 layer {
  name: "res_stage_3_781_1_relu"
  type: "ReLU"
  bottom: "res_stage_3_781_1_top"
  top: "res_stage_3_781_1_top"
}
layer {
  name: "res_stage_3_781_2"
  type: "Convolution"
  bottom: "res_stage_3_781_1_top"
  top: "res_stage_3_781_2"
  convolution_param {
    num_output: 256
    pad: 1
    kernel_size: 3
    stride: 1
    weight_filler {
      type: "msra"
    }
    bias_term: false
  }
}
layer {
  name: "bn_stage_3_781_2"
  type: "BatchNorm"
  bottom: "res_stage_3_781_2"
  top: "res_stage_3_781_2"
  batch_norm_param {
      use_global_stats: false
  }
}
layer {
  name: "scale_stage_3_781_2"  
  type: "Scale"
  bottom: "res_stage_3_781_2"
  top: "res_stage_3_781_2_top"
  scale_param {
	bias_term: true
  }
}
 layer {
  name: "res_stage_3_781_2_relu"
  type: "ReLU"
  bottom: "res_stage_3_781_2_top"
  top: "res_stage_3_781_2_top"
}
layer {
  name: "res_stage_3_781_3"
  type: "Convolution"
  bottom: "res_stage_3_781_2_top"
  top: "res_stage_3_781_3"
  convolution_param {
    num_output: 1024
    pad: 0
    kernel_size: 1
    stride: 1
    weight_filler {
      type: "msra"
    }
    bias_term: false
  }
}
layer {
  name: "bn_stage_3_781_3"
  type: "BatchNorm"
  bottom: "res_stage_3_781_3"
  top: "res_stage_3_781_3"
  batch_norm_param {
      use_global_stats: false
  }
}
layer {
  name: "scale_stage_3_781_3"  
  type: "Scale"
  bottom: "res_stage_3_781_3"
  top: "res_stage_3_781_3_top"
  scale_param {
	bias_term: true
  }
}
 layer {
  name: "res_3_781"
  type: "Eltwise"
  bottom: "res_3_780"
  bottom: "res_stage_3_781_3_top"
  top: "res_3_781"
  eltwise_param {
    operation: SUM
  }
}
layer {
  name: "res_3_781_relu"
  type: "ReLU"
  bottom: "res_3_781"
  top: "res_3_781"
}
layer {
  name: "res_stage_3_782_1"
  type: "Convolution"
  bottom: "res_3_781"
  top: "res_stage_3_782_1"
  convolution_param {
    num_output: 256
    pad: 0
    kernel_size: 1
    stride: 1
    weight_filler {
      type: "msra"
    }
    bias_term: false
  }
}
layer {
  name: "bn_stage_3_782_1"
  type: "BatchNorm"
  bottom: "res_stage_3_782_1"
  top: "res_stage_3_782_1"
  batch_norm_param {
      use_global_stats: false
  }
}
layer {
  name: "scale_stage_3_782_1"  
  type: "Scale"
  bottom: "res_stage_3_782_1"
  top: "res_stage_3_782_1_top"
  scale_param {
	bias_term: true
  }
}
 layer {
  name: "res_stage_3_782_1_relu"
  type: "ReLU"
  bottom: "res_stage_3_782_1_top"
  top: "res_stage_3_782_1_top"
}
layer {
  name: "res_stage_3_782_2"
  type: "Convolution"
  bottom: "res_stage_3_782_1_top"
  top: "res_stage_3_782_2"
  convolution_param {
    num_output: 256
    pad: 1
    kernel_size: 3
    stride: 1
    weight_filler {
      type: "msra"
    }
    bias_term: false
  }
}
layer {
  name: "bn_stage_3_782_2"
  type: "BatchNorm"
  bottom: "res_stage_3_782_2"
  top: "res_stage_3_782_2"
  batch_norm_param {
      use_global_stats: false
  }
}
layer {
  name: "scale_stage_3_782_2"  
  type: "Scale"
  bottom: "res_stage_3_782_2"
  top: "res_stage_3_782_2_top"
  scale_param {
	bias_term: true
  }
}
 layer {
  name: "res_stage_3_782_2_relu"
  type: "ReLU"
  bottom: "res_stage_3_782_2_top"
  top: "res_stage_3_782_2_top"
}
layer {
  name: "res_stage_3_782_3"
  type: "Convolution"
  bottom: "res_stage_3_782_2_top"
  top: "res_stage_3_782_3"
  convolution_param {
    num_output: 1024
    pad: 0
    kernel_size: 1
    stride: 1
    weight_filler {
      type: "msra"
    }
    bias_term: false
  }
}
layer {
  name: "bn_stage_3_782_3"
  type: "BatchNorm"
  bottom: "res_stage_3_782_3"
  top: "res_stage_3_782_3"
  batch_norm_param {
      use_global_stats: false
  }
}
layer {
  name: "scale_stage_3_782_3"  
  type: "Scale"
  bottom: "res_stage_3_782_3"
  top: "res_stage_3_782_3_top"
  scale_param {
	bias_term: true
  }
}
 layer {
  name: "res_3_782"
  type: "Eltwise"
  bottom: "res_3_781"
  bottom: "res_stage_3_782_3_top"
  top: "res_3_782"
  eltwise_param {
    operation: SUM
  }
}
layer {
  name: "res_3_782_relu"
  type: "ReLU"
  bottom: "res_3_782"
  top: "res_3_782"
}
layer {
  name: "res_stage_3_783_1"
  type: "Convolution"
  bottom: "res_3_782"
  top: "res_stage_3_783_1"
  convolution_param {
    num_output: 256
    pad: 0
    kernel_size: 1
    stride: 1
    weight_filler {
      type: "msra"
    }
    bias_term: false
  }
}
layer {
  name: "bn_stage_3_783_1"
  type: "BatchNorm"
  bottom: "res_stage_3_783_1"
  top: "res_stage_3_783_1"
  batch_norm_param {
      use_global_stats: false
  }
}
layer {
  name: "scale_stage_3_783_1"  
  type: "Scale"
  bottom: "res_stage_3_783_1"
  top: "res_stage_3_783_1_top"
  scale_param {
	bias_term: true
  }
}
 layer {
  name: "res_stage_3_783_1_relu"
  type: "ReLU"
  bottom: "res_stage_3_783_1_top"
  top: "res_stage_3_783_1_top"
}
layer {
  name: "res_stage_3_783_2"
  type: "Convolution"
  bottom: "res_stage_3_783_1_top"
  top: "res_stage_3_783_2"
  convolution_param {
    num_output: 256
    pad: 1
    kernel_size: 3
    stride: 1
    weight_filler {
      type: "msra"
    }
    bias_term: false
  }
}
layer {
  name: "bn_stage_3_783_2"
  type: "BatchNorm"
  bottom: "res_stage_3_783_2"
  top: "res_stage_3_783_2"
  batch_norm_param {
      use_global_stats: false
  }
}
layer {
  name: "scale_stage_3_783_2"  
  type: "Scale"
  bottom: "res_stage_3_783_2"
  top: "res_stage_3_783_2_top"
  scale_param {
	bias_term: true
  }
}
 layer {
  name: "res_stage_3_783_2_relu"
  type: "ReLU"
  bottom: "res_stage_3_783_2_top"
  top: "res_stage_3_783_2_top"
}
layer {
  name: "res_stage_3_783_3"
  type: "Convolution"
  bottom: "res_stage_3_783_2_top"
  top: "res_stage_3_783_3"
  convolution_param {
    num_output: 1024
    pad: 0
    kernel_size: 1
    stride: 1
    weight_filler {
      type: "msra"
    }
    bias_term: false
  }
}
layer {
  name: "bn_stage_3_783_3"
  type: "BatchNorm"
  bottom: "res_stage_3_783_3"
  top: "res_stage_3_783_3"
  batch_norm_param {
      use_global_stats: false
  }
}
layer {
  name: "scale_stage_3_783_3"  
  type: "Scale"
  bottom: "res_stage_3_783_3"
  top: "res_stage_3_783_3_top"
  scale_param {
	bias_term: true
  }
}
 layer {
  name: "res_3_783"
  type: "Eltwise"
  bottom: "res_3_782"
  bottom: "res_stage_3_783_3_top"
  top: "res_3_783"
  eltwise_param {
    operation: SUM
  }
}
layer {
  name: "res_3_783_relu"
  type: "ReLU"
  bottom: "res_3_783"
  top: "res_3_783"
}
layer {
  name: "res_stage_3_784_1"
  type: "Convolution"
  bottom: "res_3_783"
  top: "res_stage_3_784_1"
  convolution_param {
    num_output: 256
    pad: 0
    kernel_size: 1
    stride: 1
    weight_filler {
      type: "msra"
    }
    bias_term: false
  }
}
layer {
  name: "bn_stage_3_784_1"
  type: "BatchNorm"
  bottom: "res_stage_3_784_1"
  top: "res_stage_3_784_1"
  batch_norm_param {
      use_global_stats: false
  }
}
layer {
  name: "scale_stage_3_784_1"  
  type: "Scale"
  bottom: "res_stage_3_784_1"
  top: "res_stage_3_784_1_top"
  scale_param {
	bias_term: true
  }
}
 layer {
  name: "res_stage_3_784_1_relu"
  type: "ReLU"
  bottom: "res_stage_3_784_1_top"
  top: "res_stage_3_784_1_top"
}
layer {
  name: "res_stage_3_784_2"
  type: "Convolution"
  bottom: "res_stage_3_784_1_top"
  top: "res_stage_3_784_2"
  convolution_param {
    num_output: 256
    pad: 1
    kernel_size: 3
    stride: 1
    weight_filler {
      type: "msra"
    }
    bias_term: false
  }
}
layer {
  name: "bn_stage_3_784_2"
  type: "BatchNorm"
  bottom: "res_stage_3_784_2"
  top: "res_stage_3_784_2"
  batch_norm_param {
      use_global_stats: false
  }
}
layer {
  name: "scale_stage_3_784_2"  
  type: "Scale"
  bottom: "res_stage_3_784_2"
  top: "res_stage_3_784_2_top"
  scale_param {
	bias_term: true
  }
}
 layer {
  name: "res_stage_3_784_2_relu"
  type: "ReLU"
  bottom: "res_stage_3_784_2_top"
  top: "res_stage_3_784_2_top"
}
layer {
  name: "res_stage_3_784_3"
  type: "Convolution"
  bottom: "res_stage_3_784_2_top"
  top: "res_stage_3_784_3"
  convolution_param {
    num_output: 1024
    pad: 0
    kernel_size: 1
    stride: 1
    weight_filler {
      type: "msra"
    }
    bias_term: false
  }
}
layer {
  name: "bn_stage_3_784_3"
  type: "BatchNorm"
  bottom: "res_stage_3_784_3"
  top: "res_stage_3_784_3"
  batch_norm_param {
      use_global_stats: false
  }
}
layer {
  name: "scale_stage_3_784_3"  
  type: "Scale"
  bottom: "res_stage_3_784_3"
  top: "res_stage_3_784_3_top"
  scale_param {
	bias_term: true
  }
}
 layer {
  name: "res_3_784"
  type: "Eltwise"
  bottom: "res_3_783"
  bottom: "res_stage_3_784_3_top"
  top: "res_3_784"
  eltwise_param {
    operation: SUM
  }
}
layer {
  name: "res_3_784_relu"
  type: "ReLU"
  bottom: "res_3_784"
  top: "res_3_784"
}
layer {
  name: "res_stage_3_785_1"
  type: "Convolution"
  bottom: "res_3_784"
  top: "res_stage_3_785_1"
  convolution_param {
    num_output: 256
    pad: 0
    kernel_size: 1
    stride: 1
    weight_filler {
      type: "msra"
    }
    bias_term: false
  }
}
layer {
  name: "bn_stage_3_785_1"
  type: "BatchNorm"
  bottom: "res_stage_3_785_1"
  top: "res_stage_3_785_1"
  batch_norm_param {
      use_global_stats: false
  }
}
layer {
  name: "scale_stage_3_785_1"  
  type: "Scale"
  bottom: "res_stage_3_785_1"
  top: "res_stage_3_785_1_top"
  scale_param {
	bias_term: true
  }
}
 layer {
  name: "res_stage_3_785_1_relu"
  type: "ReLU"
  bottom: "res_stage_3_785_1_top"
  top: "res_stage_3_785_1_top"
}
layer {
  name: "res_stage_3_785_2"
  type: "Convolution"
  bottom: "res_stage_3_785_1_top"
  top: "res_stage_3_785_2"
  convolution_param {
    num_output: 256
    pad: 1
    kernel_size: 3
    stride: 1
    weight_filler {
      type: "msra"
    }
    bias_term: false
  }
}
layer {
  name: "bn_stage_3_785_2"
  type: "BatchNorm"
  bottom: "res_stage_3_785_2"
  top: "res_stage_3_785_2"
  batch_norm_param {
      use_global_stats: false
  }
}
layer {
  name: "scale_stage_3_785_2"  
  type: "Scale"
  bottom: "res_stage_3_785_2"
  top: "res_stage_3_785_2_top"
  scale_param {
	bias_term: true
  }
}
 layer {
  name: "res_stage_3_785_2_relu"
  type: "ReLU"
  bottom: "res_stage_3_785_2_top"
  top: "res_stage_3_785_2_top"
}
layer {
  name: "res_stage_3_785_3"
  type: "Convolution"
  bottom: "res_stage_3_785_2_top"
  top: "res_stage_3_785_3"
  convolution_param {
    num_output: 1024
    pad: 0
    kernel_size: 1
    stride: 1
    weight_filler {
      type: "msra"
    }
    bias_term: false
  }
}
layer {
  name: "bn_stage_3_785_3"
  type: "BatchNorm"
  bottom: "res_stage_3_785_3"
  top: "res_stage_3_785_3"
  batch_norm_param {
      use_global_stats: false
  }
}
layer {
  name: "scale_stage_3_785_3"  
  type: "Scale"
  bottom: "res_stage_3_785_3"
  top: "res_stage_3_785_3_top"
  scale_param {
	bias_term: true
  }
}
 layer {
  name: "res_3_785"
  type: "Eltwise"
  bottom: "res_3_784"
  bottom: "res_stage_3_785_3_top"
  top: "res_3_785"
  eltwise_param {
    operation: SUM
  }
}
layer {
  name: "res_3_785_relu"
  type: "ReLU"
  bottom: "res_3_785"
  top: "res_3_785"
}
layer {
  name: "res_stage_3_786_1"
  type: "Convolution"
  bottom: "res_3_785"
  top: "res_stage_3_786_1"
  convolution_param {
    num_output: 256
    pad: 0
    kernel_size: 1
    stride: 1
    weight_filler {
      type: "msra"
    }
    bias_term: false
  }
}
layer {
  name: "bn_stage_3_786_1"
  type: "BatchNorm"
  bottom: "res_stage_3_786_1"
  top: "res_stage_3_786_1"
  batch_norm_param {
      use_global_stats: false
  }
}
layer {
  name: "scale_stage_3_786_1"  
  type: "Scale"
  bottom: "res_stage_3_786_1"
  top: "res_stage_3_786_1_top"
  scale_param {
	bias_term: true
  }
}
 layer {
  name: "res_stage_3_786_1_relu"
  type: "ReLU"
  bottom: "res_stage_3_786_1_top"
  top: "res_stage_3_786_1_top"
}
layer {
  name: "res_stage_3_786_2"
  type: "Convolution"
  bottom: "res_stage_3_786_1_top"
  top: "res_stage_3_786_2"
  convolution_param {
    num_output: 256
    pad: 1
    kernel_size: 3
    stride: 1
    weight_filler {
      type: "msra"
    }
    bias_term: false
  }
}
layer {
  name: "bn_stage_3_786_2"
  type: "BatchNorm"
  bottom: "res_stage_3_786_2"
  top: "res_stage_3_786_2"
  batch_norm_param {
      use_global_stats: false
  }
}
layer {
  name: "scale_stage_3_786_2"  
  type: "Scale"
  bottom: "res_stage_3_786_2"
  top: "res_stage_3_786_2_top"
  scale_param {
	bias_term: true
  }
}
 layer {
  name: "res_stage_3_786_2_relu"
  type: "ReLU"
  bottom: "res_stage_3_786_2_top"
  top: "res_stage_3_786_2_top"
}
layer {
  name: "res_stage_3_786_3"
  type: "Convolution"
  bottom: "res_stage_3_786_2_top"
  top: "res_stage_3_786_3"
  convolution_param {
    num_output: 1024
    pad: 0
    kernel_size: 1
    stride: 1
    weight_filler {
      type: "msra"
    }
    bias_term: false
  }
}
layer {
  name: "bn_stage_3_786_3"
  type: "BatchNorm"
  bottom: "res_stage_3_786_3"
  top: "res_stage_3_786_3"
  batch_norm_param {
      use_global_stats: false
  }
}
layer {
  name: "scale_stage_3_786_3"  
  type: "Scale"
  bottom: "res_stage_3_786_3"
  top: "res_stage_3_786_3_top"
  scale_param {
	bias_term: true
  }
}
 layer {
  name: "res_3_786"
  type: "Eltwise"
  bottom: "res_3_785"
  bottom: "res_stage_3_786_3_top"
  top: "res_3_786"
  eltwise_param {
    operation: SUM
  }
}
layer {
  name: "res_3_786_relu"
  type: "ReLU"
  bottom: "res_3_786"
  top: "res_3_786"
}
layer {
  name: "res_stage_3_787_1"
  type: "Convolution"
  bottom: "res_3_786"
  top: "res_stage_3_787_1"
  convolution_param {
    num_output: 256
    pad: 0
    kernel_size: 1
    stride: 1
    weight_filler {
      type: "msra"
    }
    bias_term: false
  }
}
layer {
  name: "bn_stage_3_787_1"
  type: "BatchNorm"
  bottom: "res_stage_3_787_1"
  top: "res_stage_3_787_1"
  batch_norm_param {
      use_global_stats: false
  }
}
layer {
  name: "scale_stage_3_787_1"  
  type: "Scale"
  bottom: "res_stage_3_787_1"
  top: "res_stage_3_787_1_top"
  scale_param {
	bias_term: true
  }
}
 layer {
  name: "res_stage_3_787_1_relu"
  type: "ReLU"
  bottom: "res_stage_3_787_1_top"
  top: "res_stage_3_787_1_top"
}
layer {
  name: "res_stage_3_787_2"
  type: "Convolution"
  bottom: "res_stage_3_787_1_top"
  top: "res_stage_3_787_2"
  convolution_param {
    num_output: 256
    pad: 1
    kernel_size: 3
    stride: 1
    weight_filler {
      type: "msra"
    }
    bias_term: false
  }
}
layer {
  name: "bn_stage_3_787_2"
  type: "BatchNorm"
  bottom: "res_stage_3_787_2"
  top: "res_stage_3_787_2"
  batch_norm_param {
      use_global_stats: false
  }
}
layer {
  name: "scale_stage_3_787_2"  
  type: "Scale"
  bottom: "res_stage_3_787_2"
  top: "res_stage_3_787_2_top"
  scale_param {
	bias_term: true
  }
}
 layer {
  name: "res_stage_3_787_2_relu"
  type: "ReLU"
  bottom: "res_stage_3_787_2_top"
  top: "res_stage_3_787_2_top"
}
layer {
  name: "res_stage_3_787_3"
  type: "Convolution"
  bottom: "res_stage_3_787_2_top"
  top: "res_stage_3_787_3"
  convolution_param {
    num_output: 1024
    pad: 0
    kernel_size: 1
    stride: 1
    weight_filler {
      type: "msra"
    }
    bias_term: false
  }
}
layer {
  name: "bn_stage_3_787_3"
  type: "BatchNorm"
  bottom: "res_stage_3_787_3"
  top: "res_stage_3_787_3"
  batch_norm_param {
      use_global_stats: false
  }
}
layer {
  name: "scale_stage_3_787_3"  
  type: "Scale"
  bottom: "res_stage_3_787_3"
  top: "res_stage_3_787_3_top"
  scale_param {
	bias_term: true
  }
}
 layer {
  name: "res_3_787"
  type: "Eltwise"
  bottom: "res_3_786"
  bottom: "res_stage_3_787_3_top"
  top: "res_3_787"
  eltwise_param {
    operation: SUM
  }
}
layer {
  name: "res_3_787_relu"
  type: "ReLU"
  bottom: "res_3_787"
  top: "res_3_787"
}
layer {
  name: "res_stage_3_788_1"
  type: "Convolution"
  bottom: "res_3_787"
  top: "res_stage_3_788_1"
  convolution_param {
    num_output: 256
    pad: 0
    kernel_size: 1
    stride: 1
    weight_filler {
      type: "msra"
    }
    bias_term: false
  }
}
layer {
  name: "bn_stage_3_788_1"
  type: "BatchNorm"
  bottom: "res_stage_3_788_1"
  top: "res_stage_3_788_1"
  batch_norm_param {
      use_global_stats: false
  }
}
layer {
  name: "scale_stage_3_788_1"  
  type: "Scale"
  bottom: "res_stage_3_788_1"
  top: "res_stage_3_788_1_top"
  scale_param {
	bias_term: true
  }
}
 layer {
  name: "res_stage_3_788_1_relu"
  type: "ReLU"
  bottom: "res_stage_3_788_1_top"
  top: "res_stage_3_788_1_top"
}
layer {
  name: "res_stage_3_788_2"
  type: "Convolution"
  bottom: "res_stage_3_788_1_top"
  top: "res_stage_3_788_2"
  convolution_param {
    num_output: 256
    pad: 1
    kernel_size: 3
    stride: 1
    weight_filler {
      type: "msra"
    }
    bias_term: false
  }
}
layer {
  name: "bn_stage_3_788_2"
  type: "BatchNorm"
  bottom: "res_stage_3_788_2"
  top: "res_stage_3_788_2"
  batch_norm_param {
      use_global_stats: false
  }
}
layer {
  name: "scale_stage_3_788_2"  
  type: "Scale"
  bottom: "res_stage_3_788_2"
  top: "res_stage_3_788_2_top"
  scale_param {
	bias_term: true
  }
}
 layer {
  name: "res_stage_3_788_2_relu"
  type: "ReLU"
  bottom: "res_stage_3_788_2_top"
  top: "res_stage_3_788_2_top"
}
layer {
  name: "res_stage_3_788_3"
  type: "Convolution"
  bottom: "res_stage_3_788_2_top"
  top: "res_stage_3_788_3"
  convolution_param {
    num_output: 1024
    pad: 0
    kernel_size: 1
    stride: 1
    weight_filler {
      type: "msra"
    }
    bias_term: false
  }
}
layer {
  name: "bn_stage_3_788_3"
  type: "BatchNorm"
  bottom: "res_stage_3_788_3"
  top: "res_stage_3_788_3"
  batch_norm_param {
      use_global_stats: false
  }
}
layer {
  name: "scale_stage_3_788_3"  
  type: "Scale"
  bottom: "res_stage_3_788_3"
  top: "res_stage_3_788_3_top"
  scale_param {
	bias_term: true
  }
}
 layer {
  name: "res_3_788"
  type: "Eltwise"
  bottom: "res_3_787"
  bottom: "res_stage_3_788_3_top"
  top: "res_3_788"
  eltwise_param {
    operation: SUM
  }
}
layer {
  name: "res_3_788_relu"
  type: "ReLU"
  bottom: "res_3_788"
  top: "res_3_788"
}
layer {
  name: "res_stage_3_789_1"
  type: "Convolution"
  bottom: "res_3_788"
  top: "res_stage_3_789_1"
  convolution_param {
    num_output: 256
    pad: 0
    kernel_size: 1
    stride: 1
    weight_filler {
      type: "msra"
    }
    bias_term: false
  }
}
layer {
  name: "bn_stage_3_789_1"
  type: "BatchNorm"
  bottom: "res_stage_3_789_1"
  top: "res_stage_3_789_1"
  batch_norm_param {
      use_global_stats: false
  }
}
layer {
  name: "scale_stage_3_789_1"  
  type: "Scale"
  bottom: "res_stage_3_789_1"
  top: "res_stage_3_789_1_top"
  scale_param {
	bias_term: true
  }
}
 layer {
  name: "res_stage_3_789_1_relu"
  type: "ReLU"
  bottom: "res_stage_3_789_1_top"
  top: "res_stage_3_789_1_top"
}
layer {
  name: "res_stage_3_789_2"
  type: "Convolution"
  bottom: "res_stage_3_789_1_top"
  top: "res_stage_3_789_2"
  convolution_param {
    num_output: 256
    pad: 1
    kernel_size: 3
    stride: 1
    weight_filler {
      type: "msra"
    }
    bias_term: false
  }
}
layer {
  name: "bn_stage_3_789_2"
  type: "BatchNorm"
  bottom: "res_stage_3_789_2"
  top: "res_stage_3_789_2"
  batch_norm_param {
      use_global_stats: false
  }
}
layer {
  name: "scale_stage_3_789_2"  
  type: "Scale"
  bottom: "res_stage_3_789_2"
  top: "res_stage_3_789_2_top"
  scale_param {
	bias_term: true
  }
}
 layer {
  name: "res_stage_3_789_2_relu"
  type: "ReLU"
  bottom: "res_stage_3_789_2_top"
  top: "res_stage_3_789_2_top"
}
layer {
  name: "res_stage_3_789_3"
  type: "Convolution"
  bottom: "res_stage_3_789_2_top"
  top: "res_stage_3_789_3"
  convolution_param {
    num_output: 1024
    pad: 0
    kernel_size: 1
    stride: 1
    weight_filler {
      type: "msra"
    }
    bias_term: false
  }
}
layer {
  name: "bn_stage_3_789_3"
  type: "BatchNorm"
  bottom: "res_stage_3_789_3"
  top: "res_stage_3_789_3"
  batch_norm_param {
      use_global_stats: false
  }
}
layer {
  name: "scale_stage_3_789_3"  
  type: "Scale"
  bottom: "res_stage_3_789_3"
  top: "res_stage_3_789_3_top"
  scale_param {
	bias_term: true
  }
}
 layer {
  name: "res_3_789"
  type: "Eltwise"
  bottom: "res_3_788"
  bottom: "res_stage_3_789_3_top"
  top: "res_3_789"
  eltwise_param {
    operation: SUM
  }
}
layer {
  name: "res_3_789_relu"
  type: "ReLU"
  bottom: "res_3_789"
  top: "res_3_789"
}
layer {
  name: "res_4_branch1"
  type: "Convolution"
  bottom: "res_3_789"
  top: "res_4_branch1"
  convolution_param {
    num_output: 2048
    pad: 0
    kernel_size: 1
    stride: 2
    weight_filler {
      type: "msra"
    }
    bias_term: false
  }
}
layer {
  name: "bn_4_branch1"
  type: "BatchNorm"
  bottom: "res_4_branch1"
  top: "res_4_branch1"
  batch_norm_param {
      use_global_stats: false
  }
}
layer {
  name: "scale_4_branch1"  
  type: "Scale"
  bottom: "res_4_branch1"
  top: "res_4_branch1_top"
  scale_param {
	bias_term: true
  }
}
 layer {
  name: "res_stage_4_1_1"
  type: "Convolution"
  bottom: "res_3_789"
  top: "res_stage_4_1_1"
  convolution_param {
    num_output: 512
    pad: 0
    kernel_size: 1
    stride: 2
    weight_filler {
      type: "msra"
    }
    bias_term: false
  }
}
layer {
  name: "bn_stage_4_1_1"
  type: "BatchNorm"
  bottom: "res_stage_4_1_1"
  top: "res_stage_4_1_1"
  batch_norm_param {
      use_global_stats: false
  }
}
layer {
  name: "scale_stage_4_1_1"  
  type: "Scale"
  bottom: "res_stage_4_1_1"
  top: "res_stage_4_1_1_top"
  scale_param {
	bias_term: true
  }
}
 layer {
  name: "res_stage_4_1_1_relu"
  type: "ReLU"
  bottom: "res_stage_4_1_1_top"
  top: "res_stage_4_1_1_top"
}
layer {
  name: "res_stage_4_1_2"
  type: "Convolution"
  bottom: "res_stage_4_1_1_top"
  top: "res_stage_4_1_2"
  convolution_param {
    num_output: 512
    pad: 1
    kernel_size: 3
    stride: 1
    weight_filler {
      type: "msra"
    }
    bias_term: false
  }
}
layer {
  name: "bn_stage_4_1_2"
  type: "BatchNorm"
  bottom: "res_stage_4_1_2"
  top: "res_stage_4_1_2"
  batch_norm_param {
      use_global_stats: false
  }
}
layer {
  name: "scale_stage_4_1_2"  
  type: "Scale"
  bottom: "res_stage_4_1_2"
  top: "res_stage_4_1_2_top"
  scale_param {
	bias_term: true
  }
}
 layer {
  name: "res_stage_4_1_2_relu"
  type: "ReLU"
  bottom: "res_stage_4_1_2_top"
  top: "res_stage_4_1_2_top"
}
layer {
  name: "res_stage_4_1_3"
  type: "Convolution"
  bottom: "res_stage_4_1_2_top"
  top: "res_stage_4_1_3"
  convolution_param {
    num_output: 2048
    pad: 0
    kernel_size: 1
    stride: 1
    weight_filler {
      type: "msra"
    }
    bias_term: false
  }
}
layer {
  name: "bn_stage_4_1_3"
  type: "BatchNorm"
  bottom: "res_stage_4_1_3"
  top: "res_stage_4_1_3"
  batch_norm_param {
      use_global_stats: false
  }
}
layer {
  name: "scale_stage_4_1_3"  
  type: "Scale"
  bottom: "res_stage_4_1_3"
  top: "res_stage_4_1_3_top"
  scale_param {
	bias_term: true
  }
}
 layer {
  name: "res_4_1"
  type: "Eltwise"
  bottom: "res_4_branch1_top"
  bottom: "res_stage_4_1_3_top"
  top: "res_4_1"
  eltwise_param {
    operation: SUM
  }
}
layer {
  name: "res_4_1_relu"
  type: "ReLU"
  bottom: "res_4_1"
  top: "res_4_1"
}
layer {
  name: "res_stage_4_2_1"
  type: "Convolution"
  bottom: "res_4_1"
  top: "res_stage_4_2_1"
  convolution_param {
    num_output: 512
    pad: 0
    kernel_size: 1
    stride: 1
    weight_filler {
      type: "msra"
    }
    bias_term: false
  }
}
layer {
  name: "bn_stage_4_2_1"
  type: "BatchNorm"
  bottom: "res_stage_4_2_1"
  top: "res_stage_4_2_1"
  batch_norm_param {
      use_global_stats: false
  }
}
layer {
  name: "scale_stage_4_2_1"  
  type: "Scale"
  bottom: "res_stage_4_2_1"
  top: "res_stage_4_2_1_top"
  scale_param {
	bias_term: true
  }
}
 layer {
  name: "res_stage_4_2_1_relu"
  type: "ReLU"
  bottom: "res_stage_4_2_1_top"
  top: "res_stage_4_2_1_top"
}
layer {
  name: "res_stage_4_2_2"
  type: "Convolution"
  bottom: "res_stage_4_2_1_top"
  top: "res_stage_4_2_2"
  convolution_param {
    num_output: 512
    pad: 1
    kernel_size: 3
    stride: 1
    weight_filler {
      type: "msra"
    }
    bias_term: false
  }
}
layer {
  name: "bn_stage_4_2_2"
  type: "BatchNorm"
  bottom: "res_stage_4_2_2"
  top: "res_stage_4_2_2"
  batch_norm_param {
      use_global_stats: false
  }
}
layer {
  name: "scale_stage_4_2_2"  
  type: "Scale"
  bottom: "res_stage_4_2_2"
  top: "res_stage_4_2_2_top"
  scale_param {
	bias_term: true
  }
}
 layer {
  name: "res_stage_4_2_2_relu"
  type: "ReLU"
  bottom: "res_stage_4_2_2_top"
  top: "res_stage_4_2_2_top"
}
layer {
  name: "res_stage_4_2_3"
  type: "Convolution"
  bottom: "res_stage_4_2_2_top"
  top: "res_stage_4_2_3"
  convolution_param {
    num_output: 2048
    pad: 0
    kernel_size: 1
    stride: 1
    weight_filler {
      type: "msra"
    }
    bias_term: false
  }
}
layer {
  name: "bn_stage_4_2_3"
  type: "BatchNorm"
  bottom: "res_stage_4_2_3"
  top: "res_stage_4_2_3"
  batch_norm_param {
      use_global_stats: false
  }
}
layer {
  name: "scale_stage_4_2_3"  
  type: "Scale"
  bottom: "res_stage_4_2_3"
  top: "res_stage_4_2_3_top"
  scale_param {
	bias_term: true
  }
}
 layer {
  name: "res_4_2"
  type: "Eltwise"
  bottom: "res_4_1"
  bottom: "res_stage_4_2_3_top"
  top: "res_4_2"
  eltwise_param {
    operation: SUM
  }
}
layer {
  name: "res_4_2_relu"
  type: "ReLU"
  bottom: "res_4_2"
  top: "res_4_2"
}
layer {
  name: "res_stage_4_3_1"
  type: "Convolution"
  bottom: "res_4_2"
  top: "res_stage_4_3_1"
  convolution_param {
    num_output: 512
    pad: 0
    kernel_size: 1
    stride: 1
    weight_filler {
      type: "msra"
    }
    bias_term: false
  }
}
layer {
  name: "bn_stage_4_3_1"
  type: "BatchNorm"
  bottom: "res_stage_4_3_1"
  top: "res_stage_4_3_1"
  batch_norm_param {
      use_global_stats: false
  }
}
layer {
  name: "scale_stage_4_3_1"  
  type: "Scale"
  bottom: "res_stage_4_3_1"
  top: "res_stage_4_3_1_top"
  scale_param {
	bias_term: true
  }
}
 layer {
  name: "res_stage_4_3_1_relu"
  type: "ReLU"
  bottom: "res_stage_4_3_1_top"
  top: "res_stage_4_3_1_top"
}
layer {
  name: "res_stage_4_3_2"
  type: "Convolution"
  bottom: "res_stage_4_3_1_top"
  top: "res_stage_4_3_2"
  convolution_param {
    num_output: 512
    pad: 1
    kernel_size: 3
    stride: 1
    weight_filler {
      type: "msra"
    }
    bias_term: false
  }
}
layer {
  name: "bn_stage_4_3_2"
  type: "BatchNorm"
  bottom: "res_stage_4_3_2"
  top: "res_stage_4_3_2"
  batch_norm_param {
      use_global_stats: false
  }
}
layer {
  name: "scale_stage_4_3_2"  
  type: "Scale"
  bottom: "res_stage_4_3_2"
  top: "res_stage_4_3_2_top"
  scale_param {
	bias_term: true
  }
}
 layer {
  name: "res_stage_4_3_2_relu"
  type: "ReLU"
  bottom: "res_stage_4_3_2_top"
  top: "res_stage_4_3_2_top"
}
layer {
  name: "res_stage_4_3_3"
  type: "Convolution"
  bottom: "res_stage_4_3_2_top"
  top: "res_stage_4_3_3"
  convolution_param {
    num_output: 2048
    pad: 0
    kernel_size: 1
    stride: 1
    weight_filler {
      type: "msra"
    }
    bias_term: false
  }
}
layer {
  name: "bn_stage_4_3_3"
  type: "BatchNorm"
  bottom: "res_stage_4_3_3"
  top: "res_stage_4_3_3"
  batch_norm_param {
      use_global_stats: false
  }
}
layer {
  name: "scale_stage_4_3_3"  
  type: "Scale"
  bottom: "res_stage_4_3_3"
  top: "res_stage_4_3_3_top"
  scale_param {
	bias_term: true
  }
}
 layer {
  name: "res_4_3"
  type: "Eltwise"
  bottom: "res_4_2"
  bottom: "res_stage_4_3_3_top"
  top: "res_4_3"
  eltwise_param {
    operation: SUM
  }
}
layer {
  name: "res_4_3_relu"
  type: "ReLU"
  bottom: "res_4_3"
  top: "res_4_3"
}
layer {
  name: "res_stage_4_4_1"
  type: "Convolution"
  bottom: "res_4_3"
  top: "res_stage_4_4_1"
  convolution_param {
    num_output: 512
    pad: 0
    kernel_size: 1
    stride: 1
    weight_filler {
      type: "msra"
    }
    bias_term: false
  }
}
layer {
  name: "bn_stage_4_4_1"
  type: "BatchNorm"
  bottom: "res_stage_4_4_1"
  top: "res_stage_4_4_1"
  batch_norm_param {
      use_global_stats: false
  }
}
layer {
  name: "scale_stage_4_4_1"  
  type: "Scale"
  bottom: "res_stage_4_4_1"
  top: "res_stage_4_4_1_top"
  scale_param {
	bias_term: true
  }
}
 layer {
  name: "res_stage_4_4_1_relu"
  type: "ReLU"
  bottom: "res_stage_4_4_1_top"
  top: "res_stage_4_4_1_top"
}
layer {
  name: "res_stage_4_4_2"
  type: "Convolution"
  bottom: "res_stage_4_4_1_top"
  top: "res_stage_4_4_2"
  convolution_param {
    num_output: 512
    pad: 1
    kernel_size: 3
    stride: 1
    weight_filler {
      type: "msra"
    }
    bias_term: false
  }
}
layer {
  name: "bn_stage_4_4_2"
  type: "BatchNorm"
  bottom: "res_stage_4_4_2"
  top: "res_stage_4_4_2"
  batch_norm_param {
      use_global_stats: false
  }
}
layer {
  name: "scale_stage_4_4_2"  
  type: "Scale"
  bottom: "res_stage_4_4_2"
  top: "res_stage_4_4_2_top"
  scale_param {
	bias_term: true
  }
}
 layer {
  name: "res_stage_4_4_2_relu"
  type: "ReLU"
  bottom: "res_stage_4_4_2_top"
  top: "res_stage_4_4_2_top"
}
layer {
  name: "res_stage_4_4_3"
  type: "Convolution"
  bottom: "res_stage_4_4_2_top"
  top: "res_stage_4_4_3"
  convolution_param {
    num_output: 2048
    pad: 0
    kernel_size: 1
    stride: 1
    weight_filler {
      type: "msra"
    }
    bias_term: false
  }
}
layer {
  name: "bn_stage_4_4_3"
  type: "BatchNorm"
  bottom: "res_stage_4_4_3"
  top: "res_stage_4_4_3"
  batch_norm_param {
      use_global_stats: false
  }
}
layer {
  name: "scale_stage_4_4_3"  
  type: "Scale"
  bottom: "res_stage_4_4_3"
  top: "res_stage_4_4_3_top"
  scale_param {
	bias_term: true
  }
}
 layer {
  name: "res_4_4"
  type: "Eltwise"
  bottom: "res_4_3"
  bottom: "res_stage_4_4_3_top"
  top: "res_4_4"
  eltwise_param {
    operation: SUM
  }
}
layer {
  name: "res_4_4_relu"
  type: "ReLU"
  bottom: "res_4_4"
  top: "res_4_4"
}
layer {
  name: "res_stage_4_5_1"
  type: "Convolution"
  bottom: "res_4_4"
  top: "res_stage_4_5_1"
  convolution_param {
    num_output: 512
    pad: 0
    kernel_size: 1
    stride: 1
    weight_filler {
      type: "msra"
    }
    bias_term: false
  }
}
layer {
  name: "bn_stage_4_5_1"
  type: "BatchNorm"
  bottom: "res_stage_4_5_1"
  top: "res_stage_4_5_1"
  batch_norm_param {
      use_global_stats: false
  }
}
layer {
  name: "scale_stage_4_5_1"  
  type: "Scale"
  bottom: "res_stage_4_5_1"
  top: "res_stage_4_5_1_top"
  scale_param {
	bias_term: true
  }
}
 layer {
  name: "res_stage_4_5_1_relu"
  type: "ReLU"
  bottom: "res_stage_4_5_1_top"
  top: "res_stage_4_5_1_top"
}
layer {
  name: "res_stage_4_5_2"
  type: "Convolution"
  bottom: "res_stage_4_5_1_top"
  top: "res_stage_4_5_2"
  convolution_param {
    num_output: 512
    pad: 1
    kernel_size: 3
    stride: 1
    weight_filler {
      type: "msra"
    }
    bias_term: false
  }
}
layer {
  name: "bn_stage_4_5_2"
  type: "BatchNorm"
  bottom: "res_stage_4_5_2"
  top: "res_stage_4_5_2"
  batch_norm_param {
      use_global_stats: false
  }
}
layer {
  name: "scale_stage_4_5_2"  
  type: "Scale"
  bottom: "res_stage_4_5_2"
  top: "res_stage_4_5_2_top"
  scale_param {
	bias_term: true
  }
}
 layer {
  name: "res_stage_4_5_2_relu"
  type: "ReLU"
  bottom: "res_stage_4_5_2_top"
  top: "res_stage_4_5_2_top"
}
layer {
  name: "res_stage_4_5_3"
  type: "Convolution"
  bottom: "res_stage_4_5_2_top"
  top: "res_stage_4_5_3"
  convolution_param {
    num_output: 2048
    pad: 0
    kernel_size: 1
    stride: 1
    weight_filler {
      type: "msra"
    }
    bias_term: false
  }
}
layer {
  name: "bn_stage_4_5_3"
  type: "BatchNorm"
  bottom: "res_stage_4_5_3"
  top: "res_stage_4_5_3"
  batch_norm_param {
      use_global_stats: false
  }
}
layer {
  name: "scale_stage_4_5_3"  
  type: "Scale"
  bottom: "res_stage_4_5_3"
  top: "res_stage_4_5_3_top"
  scale_param {
	bias_term: true
  }
}
 layer {
  name: "res_4_5"
  type: "Eltwise"
  bottom: "res_4_4"
  bottom: "res_stage_4_5_3_top"
  top: "res_4_5"
  eltwise_param {
    operation: SUM
  }
}
layer {
  name: "res_4_5_relu"
  type: "ReLU"
  bottom: "res_4_5"
  top: "res_4_5"
}
layer {
  name: "res_stage_4_6_1"
  type: "Convolution"
  bottom: "res_4_5"
  top: "res_stage_4_6_1"
  convolution_param {
    num_output: 512
    pad: 0
    kernel_size: 1
    stride: 1
    weight_filler {
      type: "msra"
    }
    bias_term: false
  }
}
layer {
  name: "bn_stage_4_6_1"
  type: "BatchNorm"
  bottom: "res_stage_4_6_1"
  top: "res_stage_4_6_1"
  batch_norm_param {
      use_global_stats: false
  }
}
layer {
  name: "scale_stage_4_6_1"  
  type: "Scale"
  bottom: "res_stage_4_6_1"
  top: "res_stage_4_6_1_top"
  scale_param {
	bias_term: true
  }
}
 layer {
  name: "res_stage_4_6_1_relu"
  type: "ReLU"
  bottom: "res_stage_4_6_1_top"
  top: "res_stage_4_6_1_top"
}
layer {
  name: "res_stage_4_6_2"
  type: "Convolution"
  bottom: "res_stage_4_6_1_top"
  top: "res_stage_4_6_2"
  convolution_param {
    num_output: 512
    pad: 1
    kernel_size: 3
    stride: 1
    weight_filler {
      type: "msra"
    }
    bias_term: false
  }
}
layer {
  name: "bn_stage_4_6_2"
  type: "BatchNorm"
  bottom: "res_stage_4_6_2"
  top: "res_stage_4_6_2"
  batch_norm_param {
      use_global_stats: false
  }
}
layer {
  name: "scale_stage_4_6_2"  
  type: "Scale"
  bottom: "res_stage_4_6_2"
  top: "res_stage_4_6_2_top"
  scale_param {
	bias_term: true
  }
}
 layer {
  name: "res_stage_4_6_2_relu"
  type: "ReLU"
  bottom: "res_stage_4_6_2_top"
  top: "res_stage_4_6_2_top"
}
layer {
  name: "res_stage_4_6_3"
  type: "Convolution"
  bottom: "res_stage_4_6_2_top"
  top: "res_stage_4_6_3"
  convolution_param {
    num_output: 2048
    pad: 0
    kernel_size: 1
    stride: 1
    weight_filler {
      type: "msra"
    }
    bias_term: false
  }
}
layer {
  name: "bn_stage_4_6_3"
  type: "BatchNorm"
  bottom: "res_stage_4_6_3"
  top: "res_stage_4_6_3"
  batch_norm_param {
      use_global_stats: false
  }
}
layer {
  name: "scale_stage_4_6_3"  
  type: "Scale"
  bottom: "res_stage_4_6_3"
  top: "res_stage_4_6_3_top"
  scale_param {
	bias_term: true
  }
}
 layer {
  name: "res_4_6"
  type: "Eltwise"
  bottom: "res_4_5"
  bottom: "res_stage_4_6_3_top"
  top: "res_4_6"
  eltwise_param {
    operation: SUM
  }
}
layer {
  name: "res_4_6_relu"
  type: "ReLU"
  bottom: "res_4_6"
  top: "res_4_6"
}
layer {
  name: "pool5"
  type: "Pooling"
  bottom: "res_4_6"
  top: "pool5"
  pooling_param {
    pool: AVE
    kernel_size: 7
    stride: 1
  }
}
layer {
  name: "fc1000"
  type: "InnerProduct"
  bottom: "pool5"
  top: "fc1000"
  param {
    lr_mult: 1
    decay_mult: 1
  }
  param {
    lr_mult: 2
    decay_mult: 1
  }
  inner_product_param {
     num_output: 1000
     weight_filler {
       type: "msra"
     }
     bias_filler {
       type: "constant"
       value: 0
     }
  }
}
layer {
  name: "loss"
  type: "SoftmaxWithLoss"
  bottom: "fc1000"
  bottom: "label"
  top: "loss"
}

layer {
  name: "acc/top-1"
  type: "Accuracy"
  bottom: "fc1000"
  bottom: "label"
  top: "acc/top-1"
  include {
    phase: TEST
  }
}

layer {
  name: "acc/top-5"
  type: "Accuracy"
  bottom: "fc1000"
  bottom: "label"
  top: "acc/top-5"
  include {
    phase: TEST
  }
  accuracy_param {
    top_k: 5
  }
}
